lightencoder.pt (torch, 479291 bytes, 360 tensors)

weight f4 [16, 12]
000000 cb a7 02 bd 9c f3 fd bd f9 1d 03 bf 1c 7a 78 be
       -0.0318983 -0.123999804 -0.5121761 -0.24265331
000010 21 76 92 be 40 0e 92 be 96 75 3c bf e7 e6 1f bf
       -0.2860575 -0.28526497 -0.7361692 -0.62461704
000020 82 59 86 bf 7e d6 4d bf 5a bb 93 bf ba 69 aa bf
       -1.0496066 -0.80405414 -1.154155 -1.3313515
000030 31 1c 7c be eb fa 11 be 66 ea 92 bc 83 5e 16 be
       -0.24620129 -0.14255874 -0.017934036 -0.14684491
000040 63 b5 62 be 32 99 c7 bd d4 4a 2e be 2b 97 8e 3e
       -0.22139506 -0.097460166 -0.17020732 0.27849707
000050 ea 60 87 be 52 28 54 be 25 99 b3 bd f2 59 45 be
       -0.26441127 -0.20718506 -0.087694444 -0.19272593
000060 e2 78 4c 3f 5a 9d dd 3e 92 d8 c6 3d fa 2b f8 3e
       0.7987195 0.43284112 0.09709276 0.4847105
000070 1f 10 7a 3f 52 c7 f7 3e 20 dc 72 3f a4 fa ad 3e
       0.9768085 0.48394257 0.94867134 0.33980286
000080 a0 8a b4 3f 54 d7 8f 3e 42 e7 52 3f c3 7f 27 3f
       1.4104805 0.2809397 0.8238412 0.65429324
000090 6c ea 7c 3f 1e 5a ab 3f 01 ab c5 3e 90 5e f1 3e
       0.987952 1.3386877 0.38607028 0.47142458
0000a0 32 a8 2c be 01 e0 8a be 28 d8 d6 be cb 45 01 be
       -0.16861036 -0.27124026 -0.4196179 -0.1262428
0000b0 82 ba ad bd c8 58 6c be 5a 2e 89 3d 8e f4 e9 be
       -0.08482839 -0.23080742 0.06698294 -0.45694393
0000c0 86 54 34 3e 40 ca b8 be ec 10 d1 3c be a8 df 3d
       0.17610368 -0.36091805 0.025520764 0.10920857
0000d0 77 6a ac bd 88 4b 55 bf f3 ef f3 3e 5b f6 07 bf
       -0.08418744 -0.83318377 0.47644004 -0.53110284
0000e0 34 06 11 3f 3a 7b e0 3d f4 e1 4a 3f b7 6a 94 3e
       0.5665009 0.109610036 0.7925103 0.28987667
0000f0 84 d3 19 bf 45 b7 16 bf 77 e2 36 bf 9b ea 4d be
       -0.6008837 -0.588734 -0.7143931 -0.20109026
000100 ae 44 d8 be 16 8f f2 be cc 9b ec be bd e3 41 bf
       -0.42239898 -0.4737479 -0.46212614 -0.75738126
000110 f4 02 d4 be c7 a4 b6 be b6 cb 79 be 77 98 18 bf
       -0.41408503 -0.3567259 -0.24394116 -0.5960764
000120 5a e6 04 3f d6 14 fa 3e ca 0a 3c 3f 1a a6 7b be
       0.5191399 0.48844022 0.7345396 -0.24575081
000130 2a de d4 3d 24 85 d5 be b6 8f af bd 34 bd ea be
       0.10393937 -0.4170314 -0.085723326 -0.45847476
000140 59 14 ed 3d d5 67 97 bd 5e ef 75 3f 22 cf 1c 3f
       0.11576147 -0.07392851 0.9606837 0.6125356
000150 d8 fb 50 3d d8 73 43 3e 26 ac e6 3e 03 c2 77 3e
       0.051021427 0.1908716 0.45053214 0.24195103
000160 98 bd 05 3e c8 5f 90 3e 21 dc 7d 3f 8c 5e 0d 3f
       0.13060606 0.28198075 0.99164015 0.5522239
000170 a7 00 6b 3f 6a 32 6c 3f b4 d9 2d 3f 72 e7 ad 3f
       0.9179787 0.92264426 0.67910314 1.3586257
000180 34 3d 82 be 39 37 c5 bd f3 a5 23 3e 06 06 c8 bd
       -0.2543732 -0.096296735 0.15981273 -0.09766774
000190 6d 00 8f bd cf a2 46 3d e5 9d 53 be 98 d1 c7 bd
       -0.06982503 0.04849511 -0.206657 -0.09756774
0001a0 fc 91 1e be 7e 18 57 3c 83 e9 41 3e c9 a3 78 be
       -0.15485376 0.013128398 0.18936734 -0.24281229
0001b0 a3 d2 fc be 10 34 40 bf 7b 05 47 bf d9 50 0e bf
       -0.49379453 -0.7507944 -0.7774274 -0.55592114
0001c0 9a 6c 33 bf 55 d9 9b be ed 55 a0 be 59 67 9a be
       -0.7008759 -0.3043925 -0.31315556 -0.30156973
0001d0 73 f0 8c be ba 8e 2c bf b0 20 1a bf c4 76 de be
       -0.27527198 -0.67405283 -0.6020613 -0.43449986
0001e0 72 32 d9 3e 83 8a 3c 3f 77 0b 3f be 03 33 16 3f
       0.424213 0.7364885 -0.18656717 0.5867159
0001f0 a3 e2 53 3f 95 c1 83 3f 06 cf 3c 3f 32 91 a1 3e
       0.82767695 1.0293452 0.7375339 0.31556088
000200 be bb 4a 3f 10 8d a0 3d 9a db f2 3e 0c a6 91 be
       0.7919272 0.078394055 0.47433168 -0.28446996
000210 ea f1 37 bd 94 48 a7 3d e0 b1 7b bc 93 d4 73 be
       -0.04490844 0.0816814 -0.015362233 -0.2381156
000220 24 bb 0b 3e 60 e2 31 3e 4f 0d f2 bd a7 ce 52 be
       0.13645607 0.17371511 -0.11818945 -0.20586644
000230 f8 ba 7b bc 6b 31 89 be e3 2b d5 3d 15 b0 0b be
       -0.015364401 -0.26795515 0.10408761 -0.13641389
000240 43 33 6a bf 7a ce fb bd 85 1b 8d bf 97 58 6d be
       -0.9148447 -0.12295242 -1.1024023 -0.23178326
000250 ca 0b d6 3e e1 e2 58 3f 74 1c 0b 3f d2 20 83 3e
       0.4180587 0.8472119 0.5434029 0.25610977
000260 42 f6 fb 3e c9 2c 1b 3e 00 92 09 3f dd 24 7c 3d
       0.49211317 0.15153803 0.53738403 0.061558593
000270 4a 39 22 bf d4 d5 29 bf af 6f 2b bf 1b 61 22 bf
       -0.63368666 -0.663419 -0.6696729 -0.6342942
000280 62 b3 2b bf 3d d0 39 be 89 81 a6 be 67 20 19 bf
       -0.6707059 -0.18145843 -0.32520702 -0.5981507
000290 05 0f 08 bf 1e 99 2e bf a1 81 1e bf f4 bb 84 be
       -0.5314792 -0.6820239 -0.6191655 -0.25924647
0002a0 ea ac 63 be 94 1d 70 3e ab 8e c9 be 76 42 af 3d
       -0.2223393 0.23448783 -0.3936666 0.08557598
0002b0 46 f7 8e be b0 3c a8 3b ac cf c2 be 9c a5 e2 be
       -0.2792303 0.0051341876 -0.38049066 -0.44266975
0002c0 02 d9 44 bf 1c 3b 01 bf 24 d5 38 bf e4 30 53 bf
       -0.7689363 -0.5048082 -0.72200227 -0.82496476
0002d0 a4 c3 e8 3e fb df c0 3e 59 a9 2b bd 91 2a ee 3e
       0.45461762 0.37670884 -0.04190955 0.4651685
0002e0 0f 47 6b 3e 64 1c ba 3e 8c ef 01 3e 9f 98 09 3d
       0.22976325 0.36349785 0.12689036 0.033592816
0002f0 0f e8 ba be dd fa 96 be f7 fe 14 bf 11 85 22 bf
       -0.36505172 -0.29488268 -0.58201545 -0.63484293

bias f4 [16]
000000 88 62 de 3e e2 70 87 be 70 47 b5 be 3a 3b 4b be
       0.43434548 -0.2645331 -0.35406065 -0.19846812
000010 b4 a9 ab 3d 18 6a 1e bf 36 1f 89 3f dd 06 72 3f
       0.08381978 -0.61880636 1.071265 0.9454172
000020 55 9a 8c be 15 5c 2b bf f3 f5 7f 3f b8 54 8d be
       -0.27461496 -0.6693738 0.99984664 -0.27603698
000030 0c 77 95 3d 80 e9 84 be 3a 01 00 3f 04 ce 12 3f
       0.07298097 -0.25959396 0.5000187 0.57345605

powers f4 [16]
000000 6c 64 95 3f 5f ea 11 40 c8 76 c7 3f 7b b0 97 3f
       1.1671271 2.2799299 1.5583124 1.1850733
000010 be 0b 63 3f 11 95 39 40 53 c4 87 3f 0d ea 25 3f
       0.8868979 2.8997233 1.0606788 0.6481026
000020 31 b1 23 40 9a 13 0f 40 74 d0 ad 3f 8f 54 0f 40
       2.55769 2.2355714 1.357924 2.239536
000030 82 20 fd 3f 2c 73 25 40 b0 6c 90 3f aa 46 88 3f
       1.9775546 2.5851545 1.1283169 1.0646565

muls f4 [16]
000000 a2 97 7c 3f 53 d6 1f be 49 8b f9 3f 7a 50 c6 3f
       0.98668873 -0.15609102 1.9495631 1.549331
000010 80 cf 8a 3f e2 6f 66 bf ee 17 c2 3f 3f 6d 09 40
       1.0844574 -0.9001447 1.5163553 2.1472929
000020 ec de 0c bf 63 2c fa bd a2 3e 2b 40 1a 33 10 40
       -0.5502765 -0.12215497 2.6756978 2.253119
000030 27 a9 28 40 5c 1c 23 bf be 47 dc 3f a8 fa d7 3f
       2.6353242 -0.6371515 1.7209394 1.6873369

weight f4 [16]
000000 3a 98 95 3f 5d 22 53 be f6 83 0e 3f 7f 41 4e 3f
       1.1687081 -0.20618577 0.55670106 0.8056869
000010 12 26 ac 3f 40 d3 0f 40 90 92 83 3f ca 90 c9 3f
       1.3449118 2.2472687 1.0279102 1.5747311
000020 1e d1 2f bf 51 65 12 be 6d c7 3f 3e bb a6 11 40
       -0.6867846 -0.14296462 0.18728419 2.2758014
000030 8a d0 fe 3e 6f e0 14 bf de 0c aa 3f f1 b8 7d 3f
       0.49768478 -0.5815496 1.3285177 0.99110323

bias f4 [16]
000000 63 05 83 be 53 2c c3 3d 0d 66 aa ba 09 f2 12 3e
       -0.25590047 0.095299385 -0.0013000384 0.14350142
000010 9d 93 e7 3e 18 71 4b 3f 43 43 5c be a6 2f db be
       0.45229807 0.7946944 -0.21510033 -0.4280979
000020 29 e6 4d 3f ba 51 09 3e 5b d3 cb 3e 9c a1 15 3f
       0.8042932 0.13410082 0.3980969 0.5844972
000030 40 89 90 3e 86 bb 67 be 79 c1 68 be 74 3c 6c be
       0.28229713 -0.22630128 -0.22730054 -0.23069936

running_mean f4 [16]
000000 c7 8f 82 3c bd 59 e6 9f b0 ad 25 41 52 ac 03 3f
       0.015937699 -9.755725e-20 10.354904 0.51434815
000010 cc 27 df 3e 65 d2 fa 98 cc eb 40 40 e1 76 93 40
       0.4358505 -6.483593e-24 3.014392 4.6082616
000020 43 30 22 9d 84 d5 48 a0 39 41 4c 41 5e 42 66 22
       -2.1465472e-21 -1.7011305e-19 12.7659235 3.1205947e-18
000030 d1 a8 21 3f d8 f0 e2 9c 19 e6 89 3d b4 22 87 3f
       0.6314822 -1.5017682e-21 0.06733341 1.0557466

running_var f4 [16]
000000 b5 52 36 3b 04 00 00 00 77 86 aa 42 93 f0 79 3e
       0.0027820293 6e-45 85.26263 0.24408178
000010 3d c5 2a 3d 04 00 00 00 01 ee 2a 3f be 6a ce 3f
       0.041692007 6e-45 0.66769415 1.6126325
000020 04 00 00 00 04 00 00 00 89 22 32 42 04 00 00 00
       6e-45 6e-45 44.533726 6e-45
000030 1d c1 e6 3e 04 00 00 00 51 3c b6 3c 7b 0a 5e 3d
       0.4506921 6e-45 0.022245558 0.054209214

weight f4 [16, 16]
000000 1f 95 df 3e f7 4d 90 be 00 9b 64 be a6 bb b5 bd
       0.43668458 -0.28184482 -0.22324753 -0.08873682
000010 b2 8b 10 bf cc 9e 83 3e 13 37 5a bf a3 08 7e bf
       -0.5646316 0.2570709 -0.85240287 -0.9923193
000020 06 7f f9 3d 1a be 69 3e b1 8c 74 be e2 d2 13 3e
       0.12182431 0.22826424 -0.23881795 0.14435914
000030 da f6 9b be c4 d9 92 be c0 10 e2 3e e7 19 46 3f
       -0.3046177 -0.28681767 0.44153404 0.77383274
000040 6e 7a be bf 37 95 39 be 9e 35 84 3c 19 90 27 3f
       -1.4881113 -0.18123327 0.016138848 0.6545425
000050 da 5f 49 3f 4b f2 8c 3f 58 69 69 bd 04 f5 77 bd
       0.7866188 1.1011442 -0.05698523 -0.0605364
000060 95 bf 7a 3f e9 d3 5d 3f 6d e1 2c 3f 4a ef 58 3f
       0.9794858 0.86651474 0.6753147 0.84740126
000070 3e f3 e8 bd 6d a9 84 bf 2b a8 87 bb 1f 8d 04 bd
       -0.1137452 -1.0364205 -0.00413992 -0.032361146
000080 4f 89 40 3f 28 c7 11 bf 0c 91 05 3e f5 4d e4 bd
       0.75209516 -0.56944513 0.13043612 -0.111476816
000090 db 90 99 be d8 b9 86 bf e7 10 9f be a7 44 07 3f
       -0.29993328 -1.0525465 -0.31067583 0.5283913
0000a0 8c 62 85 bf 76 13 95 bf c4 89 29 be 2a 56 68 bf
       -1.0420699 -1.1646564 -0.1655646 -0.90756476
0000b0 0e 58 c4 3c 59 c4 6b 3f 49 69 fc 3e 85 68 cf 3e
       0.023967769 0.9209648 0.49299076 0.4050943
0000c0 3c fe fb 3e 5e 2b b1 3e 8a c2 38 bf ae b5 a0 3e
       0.49217403 0.346034 -0.72171843 0.3138861
0000d0 27 ba 32 bf 81 6f 98 bf e1 d8 15 be 08 44 96 3e
       -0.69815296 -1.1909028 -0.14633514 0.2934878
0000e0 86 2a 98 bf e7 19 48 bf 2e 0b 03 bf db 47 7d bf
       -1.1887977 -0.78164524 -0.51188934 -0.9893777
0000f0 f1 48 50 bf 29 6f 32 3f 4e 51 2c 3f 19 82 52 bc
       -0.813613 0.69700867 0.6731156 -0.0128484005
000100 62 60 b3 be 65 97 00 bf 83 65 3e be 4a a7 d2 be
       -0.35034472 -0.5023101 -0.18593411 -0.41143256
000110 08 d4 34 3d 30 f6 d2 3e 69 96 aa be 19 04 aa 3d
       0.04414752 0.4120345 -0.3331788 0.08301563
000120 c8 43 e2 3d e6 e8 d7 3d a8 39 39 bf 58 5c d6 3e
       0.110480845 0.10542469 -0.723536 0.41867328
000130 b6 3a 3b be 7a b4 f0 be a4 02 fa be af 1e 52 bf
       -0.18284115 -0.47012693 -0.4883014 -0.8207807
000140 e8 00 7b bc 03 ff b8 bd e5 71 6a 3f 29 e9 ae 3e
       -0.01532004 -0.090330146 0.9158004 0.34162262
000150 b0 7d 32 3f ad d2 09 3e cf a5 5b 3f fc 5c a5 3e
       0.69723034 0.13459273 0.8579988 0.32297504
000160 28 c3 71 3e 19 1e 44 3e 9f b6 64 3f 75 38 5b 3d
       0.23609602 0.19152106 0.8934116 0.05352064
000170 b3 be 0e 3f bc b0 9f be 16 3d c4 be 3e 0f 8b bd
       0.55759734 -0.31189525 -0.38327855 -0.067900166
000180 d8 a7 1d bc 2e b6 00 3f 90 64 5c bf 37 53 ef 3e
       -0.009622537 0.50277984 -0.86090946 0.46743175
000190 8d 1b 18 bf ec 69 ac bf 8c 45 d2 bd 3b aa 76 3d
       -0.5941704 -1.3469825 -0.10267171 0.06022094
0001a0 78 47 a5 bf e3 4f c4 bf 82 b4 5f be 4e fa a7 bf
       -1.2912436 -1.533688 -0.21846202 -1.3123262
0001b0 0a e7 de be e2 91 9f 3f 4d f3 08 3f 80 44 ba bd
       -0.43535644 1.2466395 0.5349625 -0.090950966
0001c0 eb ff 95 3e 6b 93 bb be a6 63 3d be 9a a3 55 3e
       0.29296812 -0.36635908 -0.18495044 0.2086319
0001d0 ea 63 2d bf 1f 95 1b 3f 22 d5 b4 be 0f 25 be be
       -0.6773058 0.60774416 -0.35318857 -0.37137648
0001e0 3a 89 d4 3e f4 58 a6 3e 9d 5d 80 3e 94 99 ea 3e
       0.41510946 0.3248974 0.2507142 0.45820296
0001f0 8c 6b 93 be 08 03 1f bf ce 70 f6 3e 5a 08 1c 3f
       -0.2879299 -0.62114 0.48132938 0.60950243
000200 14 73 5a 3c 4c b3 a5 3f 52 e5 7f bd 3e f8 8f bf
       0.013333101 1.2945342 -0.062474556 -1.1247633
000210 11 69 2a bf 54 9b e6 bd 42 e7 26 bf b6 7f 12 bf
       -0.6656657 -0.11260095 -0.6519662 -0.5722612
000220 8a cd 91 bd 85 09 99 3d 34 4c 1e 3e 1e 04 26 bd
       -0.071192816 0.07472519 0.15458757 -0.04053127
000230 ed ee 35 be b0 3b 45 3e e0 15 2e 3f b5 a9 8c 3e
       -0.17766924 0.1926105 0.6800213 0.27473226
000240 96 4e 86 3f bf 13 97 3f 74 f7 90 3d ee 33 1e bf
       1.0492733 1.1802901 0.07078448 -0.6179799
000250 fd 7d f9 3e f0 16 51 be 91 09 a1 be 02 53 79 bd
       0.48728934 -0.20418906 -0.3145261 -0.060870178
000260 5e ed e5 be 20 20 b0 be 2b 7c fa bd 4d b1 27 bf
       -0.4490766 -0.3439951 -0.122307144 -0.65504915
000270 84 e1 03 bd 4a b9 ea 3e 21 66 97 3f a2 e7 69 3d
       -0.03219749 0.4584449 1.1828042 0.057105668
000280 d3 eb 0c 3e 3a 69 de bd af e8 22 bf 7c 0e 17 bf
       0.13761835 -0.10859914 -0.63636297 -0.59006476
000290 e5 63 f4 be f8 e7 04 3e c7 9f 9a bf 40 82 2f bf
       -0.47732463 0.12979114 -1.208001 -0.6855812
0002a0 3b b1 e4 3e 10 fd 1e 3e ec 2a 7c 3e 35 93 0b 3e
       0.44666466 0.15526223 0.24625748 0.13630374
0002b0 81 7a 7f 3d 1e f3 10 be f4 ca f7 3d 14 f3 0e bd
       0.06237269 -0.14155242 0.12099257 -0.034899786
0002c0 f4 e5 37 bf c9 6f 73 be 61 62 93 bd ba a2 2f 3f
       -0.71835256 -0.23773111 -0.07196499 0.68607676
0002d0 2e 14 c1 3e ab 6b 80 3f 74 5e a2 3e cb 9e 43 be
       0.37710708 1.0032858 0.31712687 -0.19103543
0002e0 cd 55 3f 3f 7b 51 81 3f c7 07 21 3e e2 af 76 3f
       0.74740297 1.0102991 0.15725623 0.96362126
0002f0 7a 8d fb be ce 05 72 bf b5 20 7b 3e 39 ee ee 3c
       -0.49131376 -0.9454011 0.24524195 0.029166328
000300 76 a6 4e bb f3 fe da bc 2b 3b 02 bf 3f b5 0a bf
       -0.0031532324 -0.026732897 -0.50871533 -0.5418281
000310 38 ce 52 bd da 28 73 3f 7d dd 15 bf 02 7f 99 3e
       -0.051466197 0.9498421 -0.5854109 0.29979712
000320 88 63 5d 3f 21 a5 86 3f 27 10 b2 3e 69 65 87 3f
       0.8648 1.0519143 0.34777948 1.0577823
000330 f3 b0 a7 3b 7a 87 71 bf 56 a7 a6 be ef 4c 3a 3e
       0.0051175295 -0.94347346 -0.32549542 0.1819341
000340 21 fd 1a 3f 64 02 b5 3e 34 4c 99 be 23 a1 53 bd
       0.60542494 0.35353386 -0.2994095 -0.051667344
000350 97 5d e7 be 0c 21 c2 bd 0f 6c 49 bf ce f9 5f bf
       -0.4518859 -0.094789594 -0.7868051 -0.87490547
000360 62 76 9d 3e 49 18 df 3d e0 4c 65 3e eb 59 48 3e
       0.3075438 0.10893304 0.22392607 0.19565551
000370 16 4d 5d bd 8e d8 6e be 50 0d 20 3e 79 48 0c bd
       -0.054028593 -0.23324797 0.15630078 -0.034248803
000380 6e 09 39 3e e8 0f 01 3e 47 a8 c5 be a2 9a 08 bd
       0.18070003 0.12603724 -0.38604948 -0.033350594
000390 75 7e 3b bf be 3c dd 3e 64 cc c6 be 2b af 80 bf
       -0.73239833 0.43210405 -0.38827813 -1.0053457
0003a0 a3 37 23 3f 41 ae 52 3e b8 ef fc 3e aa fb de 3e
       0.6375677 0.20574285 0.4940164 0.4355138
0003b0 e0 1b a0 be c8 dc e5 be 51 fa 47 3f 35 2a b4 3e
       -0.31271267 -0.44895005 0.7811633 0.3518845
0003c0 5e e3 9e be 7d bf 14 be 6a ca a6 be 15 66 1c bf
       -0.31032842 -0.14526172 -0.32576305 -0.61093265
0003d0 2a 27 03 bf e7 6e a8 be c4 06 06 be f4 82 11 3e
       -0.51231635 -0.32897112 -0.13088518 0.14210111
0003e0 ff 63 60 be 58 d3 7e bd 7f a5 47 bf 80 a1 2e be
       -0.21913145 -0.06221327 -0.779869 -0.17053795
0003f0 75 00 3e bf 0e af 2b 3e 33 67 da bc 6f 26 0c bf
       -0.7421945 0.16765997 -0.026660537 -0.54746145

bias f4 [16]
000000 66 15 8f 3e ae 41 7b 3f 3c 50 8a bf 1a db 92 bf
       0.27946013 0.98147094 -1.0805736 -1.1473114
000010 54 ca 6f 3e 7d fa cb 3e 7e 4f d1 bf a9 c3 36 3f
       0.23417026 0.39839545 -1.6352384 0.71392304
000020 82 cd a9 be fe f1 ad be cf eb bc 3e 89 8a 65 3f
       -0.33164603 -0.33973688 0.36898658 0.8966451
000030 55 6f 89 3f d5 b8 0b 3e 1e b6 8f 3e 54 06 40 be
       1.0737101 0.13644727 0.28068632 -0.18752414

powers f4 [16]
000000 2f 53 53 3f c9 f0 12 3e 47 ad f3 3f 82 1f ae 3f
       0.82548803 0.14349665 1.9037255 1.3603365
000010 e3 33 98 3f 72 f6 a0 3f 5f 6c f3 3f e7 0e 77 3f
       1.1890835 1.2575209 1.9017447 0.96507114
000020 3b a7 d2 3f 74 d6 03 40 5d 80 16 3f 39 ff 2d 3f
       1.6457285 2.0599642 0.58789617 0.67967564
000030 92 8f cd 3e f7 dc 72 3f fe f3 97 3f 9c 82 ab 3f
       0.40148598 0.94868416 1.1871336 1.3399234

muls f4 [16]
000000 9d 3a aa 3f d8 25 d0 3f ee eb 4c 3f 2f 62 7c 3f
       1.3299137 1.6261549 0.800475 0.98587316
000010 bb ac 6a 3f 84 cc b5 3f 30 76 43 3e 2d 2a 17 3f
       0.91669816 1.4203038 0.19088054 0.5904873
000020 d6 0c d1 3e 3b 2b 71 3f fc e4 73 3f 36 fd f3 3f
       0.40830106 0.9420659 0.9527128 1.9061649
000030 97 a4 86 3f 49 7e 6d 3f 8a ea 34 3f a6 3d c1 3f
       1.0518979 0.9277082 0.7067038 1.5096939

weight f4 [16]
000000 d0 f8 9a 3f d6 4b e8 3e 22 a3 b2 3e 6e 8a 3c 3f
       1.2107182 0.45370358 0.34890085 0.73648727
000010 69 f2 5c 3f ad cc 3c 3f 36 fb da 3e 73 6e 53 3f
       0.8630739 0.7374981 0.42769784 0.8259041
000020 f7 d7 42 3f cc 41 04 3c 26 3d a4 3f e9 9c 61 3f
       0.76110786 0.008072328 1.2831161 0.8813005
000030 dd 99 49 3f d4 cc 95 3f df e8 69 3f 4e 96 6d 3f
       0.787504 1.1703134 0.9137096 0.9280747

bias f4 [16]
000000 1e 29 93 bf 71 0d 20 be 0c 7c 40 3f 78 a9 1b 3c
       -1.1496923 -0.15630127 0.7518928 0.009500854
000010 2a a1 26 3f c7 77 1b bf 36 81 a6 bd 8a 2c 14 be
       0.65089667 -0.6072964 -0.08130114 -0.14470115
000020 24 a5 dd be 5d 0d 20 3e 1b 70 1f be 39 1a 40 bd
       -0.43290055 0.15630098 -0.15570109 -0.046900008
000030 05 e4 13 3f 7e 06 d0 be 14 a4 bf be d5 22 93 3f
       0.57769805 -0.40629953 -0.3742987 1.1495005

running_mean f4 [16]
000000 89 75 ee 3f cd d2 f9 3f a3 c8 63 3e 4e dd 09 3e
       1.8629619 1.9517456 0.22244506 0.13463327
000010 3e b4 a7 3f a5 80 99 40 6b 88 9c 3b 53 7d 88 3f
       1.310188 4.7969537 0.0047770045 1.0663246
000020 00 31 8c 3f 3d 31 97 40 05 dc 99 3f 0d c3 8d 40
       1.0952454 4.7247605 1.202027 4.43006
000030 89 2e dd 3f f9 3d bb 3f b0 b9 0c 40 9f 68 32 3e
       1.7279826 1.4628288 2.1988335 0.17422722

running_var f4 [16]
000000 2f d8 af 40 45 2f e6 3d d6 b4 0d 42 87 31 1d 40
       5.4951396 0.11239485 35.426598 2.456148
000010 cb a1 b3 3f 37 02 32 42 49 b2 5d 3d 69 50 a1 3f
       1.403375 44.502163 0.054125104 1.2602664
000020 26 84 08 41 e5 4d 46 45 71 18 95 3f 0d 7a 5c 3f
       8.532263 3172.8684 1.1648084 0.86123735
000030 90 04 fd 3c bb f2 61 40 05 04 18 41 03 72 8a 3e
       0.030885965 3.53044 9.500981 0.2704011

weight f4 [12, 16]
000000 dc 6b e8 3d e6 c4 00 bf 19 c7 07 bf 2c b2 f4 be
       0.113486975 -0.50300443 -0.53038174 -0.47792184
000010 f7 1f 14 bf ba c6 44 3e 53 56 94 bd 16 f1 49 3e
       -0.57861274 0.19216433 -0.072430275 0.19720873
000020 20 9c 9d 3e 94 06 d0 3e 0b 94 35 3f dc 14 cb be
       0.30783176 0.4063002 0.7092902 -0.39664352
000030 a6 22 b3 3e d6 be f5 3e 5d ed 13 3f b1 0c 96 bf
       0.34987372 0.4799716 0.5778406 -1.1722623
000040 49 f9 97 3e 1c e0 07 bf ed 8f 8e be 73 e3 e2 be
       0.29682377 -0.5307634 -0.27844182 -0.44314155
000050 da 07 9b be 2f a5 02 bd 8f c9 ea be 09 a6 f5 3e
       -0.30279428 -0.031895813 -0.45856902 0.47978237
000060 4e ac e3 3e 80 ef 15 3e 6b f8 58 3f 66 d4 2c bf
       0.44467396 0.14642143 0.84754056 -0.67511594
000070 36 b4 b2 bd f9 54 1e 3f 52 16 b1 3e 04 f0 07 bf
       -0.08725779 0.6184841 0.34587342 -0.5310061
000080 41 ab 06 3f 48 83 28 be 71 d1 c9 be 5d 2f 22 be
       0.5260506 -0.1645633 -0.39417604 -0.1583838
000090 01 c1 29 bf 2e 26 f8 bd 70 1a d1 be ea 1b b1 3e
       -0.66310126 -0.12116657 -0.40840483 0.3459161
0000a0 cc 81 4d 3f c2 dc 07 3e 6f 52 7f 3f 95 f1 3c bf
       0.8027618 0.13267806 0.9973516 -0.73806125
0000b0 68 22 e2 3d 1c 1c 41 3f b4 65 e3 3e ea b8 77 bf
       0.11041719 0.75433517 0.4441353 -0.9676653
0000c0 b5 dc d4 3e be 40 d6 be 8a 3e 5a bd 1e 7e d1 be
       0.41574636 -0.4184627 -0.0532823 -0.40916532
0000d0 1e 66 68 be b5 5c 13 3e a2 07 23 bf 8b d6 22 3f
       -0.22695205 0.14390834 -0.6368352 0.63608617
0000e0 cd 69 28 3f 80 51 dd 3e 43 11 4b 3f c8 a3 14 bf
       0.6578644 0.43226242 0.79323214 -0.5806241
0000f0 ac 26 86 3e a4 41 46 3f 06 a8 26 3f 2b a1 49 bf
       0.2620138 0.7744391 0.65100133 -0.7876155
000100 20 81 8b 3d f4 83 53 be e7 37 84 be 6a 3d 44 be
       0.06811738 -0.20655805 -0.258239 -0.19164053
000110 cc 80 8b bc 37 5d 37 bd 8e 8e a6 3d fc 2b 6d 3e
       -0.017029189 -0.04476663 0.08132659 0.2316131
000120 64 6d f7 3c 01 d9 c5 3d f5 b4 99 3e 4f ed b3 be
       0.030203529 0.09660531 0.30020872 -0.3514199
000130 be 94 a4 3e f5 4b 2d 3e f0 85 99 3a 4f 38 04 3d
       0.3214473 0.16923507 0.001171289 0.032280263
000140 ac a2 3e be a1 aa d9 bd af 08 5b 3e 0c a0 8d be
       -0.18616742 -0.10628248 0.21390031 -0.2766117
000150 3d 6c 1d 3e 93 96 d9 3c bf 50 c9 bc b7 ab 7f 3e
       0.15373321 0.026561057 -0.024574636 0.24967848
000160 68 e3 d4 bd b0 de 8b bd 96 4b 67 3e 5c 0d 78 be
       -0.10394937 -0.06829584 0.22587427 -0.24223846
000170 e4 dd 5e 3e 34 0c b2 bd 7c d8 99 3d 57 1b 98 3e
       0.21764332 -0.08693734 0.07511994 0.2970836
000180 9c 48 14 be 7d a9 39 bc e1 e7 2b 3d de 3c 34 be
       -0.14480823 -0.011331913 0.041969184 -0.17601344
000190 13 be 9c 3e 75 32 fe bd 62 9c 55 be 19 9c a0 3d
       0.30613765 -0.12411968 -0.20860437 0.07842273
0001a0 7b 18 43 3e 7e b6 39 bd ca 69 9d 3e 0b 47 2e be
       0.19052307 -0.045340054 0.30744773 -0.17019288
0001b0 0e d9 9e 3c 86 4a 95 3e 0d 2f 8b 3d 40 e5 51 3d
       0.01939061 0.2915842 0.067960836 0.05124402
0001c0 db 96 27 be 40 c4 b4 bd 61 74 89 3e f2 6c 2a be
       -0.1636614 -0.08826494 0.26846603 -0.16643122
0001d0 35 5f c7 bc 77 20 cf bd a4 fd cd 3b 44 bd 71 3c
       -0.02433739 -0.10113614 0.00628634 0.014754597
0001e0 1a 72 11 3e a4 e0 3b 3e b5 a3 0b 3f 49 24 a8 bd
       0.14203683 0.18347412 0.5454667 -0.08210046
0001f0 d8 1f 1f 3e e6 a2 93 3e 71 20 7f be 9b a3 11 3d
       0.15539491 0.2883522 -0.24914719 0.035556417
000200 a9 5e 54 bf 58 cb 26 3c 40 a0 bd 3d c8 08 ef bd
       -0.8295694 0.010180317 0.09259081 -0.11671597
000210 16 b1 d0 3e b5 18 42 bf 78 f3 d3 3c e5 7e b6 be
       0.40760106 -0.7581895 0.02587293 -0.35643688
000220 97 18 a4 be 54 0f 8b 3e 6b 1b 58 3e 23 29 b2 bd
       -0.3205001 0.27160132 0.21104209 -0.086992525
000230 f7 ce 26 3f 41 1d d1 bd 04 dd d4 be 34 a2 b5 3e
       0.65159553 -0.10210658 -0.41574872 0.35475314
000240 c3 a1 80 bf 96 be 07 3c be 8b c5 3e 29 a6 49 bd
       -1.0049366 0.008285185 0.38583177 -0.04923073
000250 2b 6f 4b 3f e9 0b 16 bf 23 ad 9d bc e9 eb 96 be
       0.79466504 -0.58611923 -0.019247597 -0.2947686
000260 86 a8 d4 be 62 0f 24 be 19 6f 3d 3d 50 64 0d bf
       -0.41534823 -0.16021493 0.04624853 -0.5523119
000270 b5 90 1e 3f 12 a0 bc be 70 f5 25 be dc 2d 16 3f
       0.61939555 -0.36840874 -0.16206908 0.58663726
000280 d3 c9 f2 be 98 45 93 3e a9 a5 44 3e 4e 43 d0 3d
       -0.47419605 0.28764033 0.1920382 0.10169087
000290 46 a7 fe 3e c6 ab 42 bf 24 f1 73 bc 7e 40 e4 be
       0.49736995 -0.76043355 -0.014889035 -0.44580454
0002a0 64 15 8a 3d 35 f2 a6 3d 69 25 82 be 3d 5c de be
       0.06742361 0.08151666 -0.25419167 -0.43429747
0002b0 66 7f cb 3e 17 f1 58 be 83 73 bb be 5f 44 1f 3e
       0.39745635 -0.21185718 -0.36611566 0.15553425
0002c0 64 24 53 bf 55 72 92 3e 6b e0 95 3e ab 5c ca bd
       -0.824774 0.28602853 0.2927278 -0.09880956
0002d0 73 2f e2 3e 4d 5f ef be b1 f4 9a be de 14 98 be
       0.44176826 -0.46752396 -0.3026481 -0.2970342
0002e0 50 24 ec be 19 cb 70 3d fb f1 6a be 1e 84 3c be
       -0.46121454 0.05878744 -0.2294387 -0.18409774
0002f0 6a af 06 3f d5 ab c5 be 4e be 9e be 89 d4 15 3f
       0.5261141 -0.3860766 -0.31004566 0.5852743

bias f4 [12]
000000 72 79 2d bf d7 54 a2 be c1 50 15 bf 60 80 2a bf
       -0.67763436 -0.31705353 -0.58326346 -0.66602135
000010 0c 22 05 3e 8d 15 97 3d ef e5 27 3e c2 91 0f 3e
       0.13001269 0.07377157 0.16396306 0.14020446
000020 13 6d 28 3f 64 77 ee 3e 99 98 04 3f c4 b7 2c 3f
       0.65791434 0.46575463 0.51795346 0.67467904

weight f4 [16, 12]
000000 fd 2c be bd e7 1b 0e bf 27 cd a9 bd c8 38 0e bf
       -0.092859246 -0.55511326 -0.08291083 -0.5555539
000010 b8 34 0e bf 34 67 ff be a4 4f 26 bf 04 0f 2f bf
       -0.5554919 -0.49883425 -0.6496527 -0.6838229
000020 f9 c7 6c be f1 11 51 bf b8 bb 33 bf 69 02 3b bf
       -0.23123159 -0.81668 -0.7020831 -0.7305055
000030 bf d7 39 3f 71 a5 5a 3f 48 b0 1e 3f 30 41 07 3f
       0.7259483 0.85408694 0.61987734 0.52833843
000040 93 73 4f 3f 22 99 2c 3f a5 7c a6 3e a4 b7 01 3f
       0.8103573 0.6742116 0.3251697 0.5067084
000050 c2 18 43 be 56 b9 f0 3d 3e 30 aa be 22 0a a7 be
       -0.19052413 0.117541 -0.3323993 -0.32624918
000060 eb f4 9c bf 51 94 90 bf aa 47 a5 bf 6e 98 d1 bf
       -1.2262243 -1.1295263 -1.2912495 -1.6374643
000070 2a 3f 90 bf 56 a9 de bf 98 bd c7 bf 10 67 ba bf
       -1.1269276 -1.7395427 -1.5604734 -1.4562702
000080 4b a2 d8 bf 19 58 c0 bf 52 71 b2 bf dd 51 f1 bf
       -1.6924528 -1.5026885 -1.3940833 -1.8853108
000090 bf 55 3f be 36 f8 14 3f da 32 16 3e a2 84 f8 3e
       -0.18685053 0.5819124 0.14667836 0.4853869
0000a0 39 0f 80 3f 09 82 4e 3f 46 9e 93 3f 7a b7 36 3f
       1.0004646 0.8066717 1.1532676 0.71373713
0000b0 12 7d bf 3e 3a 4f 4d 3e df 7d fd 3c 0a bb b3 be
       0.3740011 0.20049754 0.03094381 -0.35103637
0000c0 bf 16 f3 be 2c c6 22 bf 01 0e f0 be 3c 1a 30 bf
       -0.4747829 -0.63583636 -0.46885684 -0.6879003
0000d0 95 98 39 bf 85 de 95 be 9f 9b 24 bf 6b b6 0b bf
       -0.72498447 -0.2927133 -0.6429996 -0.5457522
0000e0 06 59 d8 be 03 92 1a bf e0 e5 7f be cb 90 15 bf
       -0.4225542 -0.60379046 -0.24990034 -0.5842406
0000f0 75 af e9 be 95 b3 25 bf 57 07 54 3e 28 8c 87 be
       -0.45641676 -0.64727145 0.20705925 -0.26474118
000100 2b d8 85 3f d4 fe 61 3f da c0 95 3f 14 1a 35 3f
       1.0456594 0.8827946 1.1699479 0.7074292
000110 07 43 86 3e 4a 85 81 3e 5c 41 94 3d 58 12 64 3e
       0.26223013 0.25297004 0.07239029 0.22272623
000120 4a d3 02 bf 45 72 0d bf 60 93 e1 be 0d d0 cb be
       -0.5110365 -0.55252486 -0.4405775 -0.39807168
000130 1f 86 d1 be b1 94 b7 be 59 60 22 be 98 b1 14 bf
       -0.4092264 -0.3585563 -0.15857066 -0.58083487
000140 49 2f c8 be 3b e6 40 bf 38 1e 03 bf 71 03 3f bf
       -0.39098576 -0.75351304 -0.51217985 -0.74614626
000150 14 21 09 be db 8d 14 3d c1 fc 92 be aa 50 2d be
       -0.13391525 0.036268096 -0.2870846 -0.16925302
000160 d7 77 08 bd 0e 85 a8 3e 0a 49 ff 3e 1c c7 34 3f
       -0.033317413 0.32914013 0.49860412 0.70616317
000170 60 db 8b 3f 19 4c 66 3f 5d 28 5b 3f da 72 5e 3f
       1.0926323 0.89959866 0.85608464 0.86894
000180 0a 16 04 bf 52 ec d1 be 03 bb 84 be 30 7a 1a 3e
       -0.5159613 -0.4100061 -0.2592393 0.15085673
000190 48 07 c3 3e 66 3c 09 3f 83 90 3f 3f 7a 8d 0a 3f
       0.38091493 0.53607786 0.7482988 0.54122126
0001a0 4a da 5e 3f 92 36 29 3f 9c b2 87 3f 23 f4 9d 3f
       0.8705183 0.6609889 1.0601382 1.234013
0001b0 ae 92 47 bf 19 07 dc be ff 95 a9 be 7d 72 ec be
       -0.7795819 -0.42974165 -0.3312225 -0.46181098
0001c0 56 a5 70 be bb c1 fc be 6a 34 28 bf 8d 71 28 bf
       -0.2350057 -0.49366555 -0.6570498 -0.65798265
0001d0 ae cd 96 be 17 8f 12 bf c7 c7 98 be 30 68 bb be
       -0.29453796 -0.5724959 -0.29839918 -0.36602926
0001e0 34 2e df 3e 3e 54 9d 3e 52 c7 e2 3e ff 82 03 3f
       0.43589938 0.30728334 0.44292694 0.5137176
0001f0 c6 76 04 3f 5d 98 42 3f 3b f6 84 3f f9 c0 13 3f
       0.51743734 0.7601374 1.0387644 0.5771633
000200 a8 d0 8c bd 1e 9d 69 be ae 2f fd bd 50 4a 20 be
       -0.068757355 -0.22813842 -0.1236261 -0.15653348
000210 1d fc 8f be 93 88 18 bf c2 cf c7 be a3 46 15 be
       -0.28122035 -0.59583396 -0.39025694 -0.14577727
000220 aa ae b3 be 76 2e ef be 75 6b 65 be fa a8 12 be
       -0.35094196 -0.46715134 -0.22404273 -0.14322272
000230 bf 0b 90 be 80 49 ef be 67 eb c8 be d8 92 ee be
       -0.28133962 -0.46735764 -0.39242098 -0.46596408
000240 69 c2 99 bf 10 97 a3 bf 8f 4f ab bf b9 92 aa bf
       -1.2012454 -1.2780476 -1.3383654 -1.3326026
000250 cc 7f b3 bf 82 1c 62 bf 45 0c a7 bf 3a 1b a5 bf
       -1.4023376 -0.8832475 -1.3050619 -1.2898934
000260 c3 6b 7f bf 3c d1 a3 bf 08 f7 a8 bf 72 ca ad bf
       -0.99773806 -1.2798228 -1.3200388 -1.3577406
000270 d2 f2 c5 be b0 03 46 bf dc 6d 23 bf be bf 45 bf
       -0.3866182 -0.77349377 -0.6383951 -0.772457
000280 55 96 6c be 83 6d 1c bf 69 8f 16 bf d1 7c c3 be
       -0.23104222 -0.611046 -0.58812577 -0.38181165
000290 82 59 1b bf 2a 7c 64 be 5a 21 02 bf 3e 3a a8 be
       -0.60683453 -0.2231299 -0.5083214 -0.32856935
0002a0 d8 db e9 bf 42 64 06 c0 f3 a6 ed bf 6a 84 f4 bf
       -1.8270216 -2.0998693 -1.8566574 -1.910291
0002b0 bd c5 e4 bf e6 44 db bf 50 56 ed bf 30 98 fd bf
       -1.7872845 -1.7130401 -1.8541965 -1.9812069
0002c0 9a f3 da bf 3c 3f ea bf 68 50 c8 bf 75 d1 c8 bf
       -1.7105591 -1.8300548 -1.5649538 -1.5688921
0002d0 12 ce 69 3e 92 67 61 3f 9e 45 73 3e 7b 06 12 3f
       0.22832516 0.8804866 0.23757026 0.5704114
0002e0 e5 70 cb 3d 2e 3a 3b bd fd 32 59 be 95 5b cb bc
       0.09933642 -0.04570978 -0.21210857 -0.024823943
0002f0 84 fc d0 be 4d 4b da 3e 4f de 37 3e 03 42 2b 3e
       -0.40817654 0.42635575 0.17955898 0.167244

bias f4 [16]
000000 5b 87 07 3f 48 72 97 3d ac a4 be bf bf c3 b0 bd
       0.5294091 0.07394844 -1.4894004 -0.086310856
000010 38 3e fd be 56 5a 12 3f f0 25 a9 3e ed c5 5a be
       -0.49461532 0.5716909 0.33036757 -0.21364565
000020 61 9f a6 3f b7 e3 46 bf e9 4c ec 3e 30 9f b1 3e
       1.3017389 -0.77691215 0.46152428 0.34691763
000030 3f eb 21 bf 7b b4 23 bf 2f 6f e8 bf a1 6c e8 3f
       -0.6324958 -0.63947266 -1.815893 1.8158151

powers f4 [16]
000000 14 23 b4 3f 54 12 ae 3f 8c a2 1f 40 7c 1e f2 3f
       1.4073205 1.3599343 2.494296 1.8915553
000010 db 48 24 40 93 8d cf 3f 1d cd a4 3f 62 fb 68 be
       2.5669467 1.621508 1.2875096 -0.22752145
000020 e6 15 69 3f 54 3e 1e 40 7e 31 d2 3f 06 41 8a 3f
       0.9104904 2.4725542 1.6421354 1.0801094
000030 1a b8 fc 3f fb 81 30 40 fd 31 32 40 f6 ba 3c 3e
       1.9743683 2.7579334 2.784301 0.18430695

muls f4 [16]
000000 de 43 d6 3f a6 f9 c5 3e 30 c8 17 bf b4 42 c4 3f
       1.6739461 0.3866703 -0.59289837 1.5332856
000010 49 58 ff 3f 15 ad 91 3f 76 74 be 3f 94 6a d9 3f
       1.9948817 1.1380945 1.4879291 1.698565
000020 8e 7a e0 3f 68 77 14 bf 72 3d c0 3e 0a af 03 40
       1.7537401 -0.579947 0.3754688 2.0575585
000030 e6 3b d7 3d e2 9f 41 bf dc e9 45 bf 5a 51 ee 3e
       0.105094716 -0.75634587 -0.77309966 0.4654644

weight f4 [16]
000000 82 3c 6d 3f f4 1a a8 3f e2 d1 0e bf 00 7e a6 3f
       0.9267045 1.3133225 -0.55789006 1.3007202
000010 48 b1 48 bf 24 a2 8c 3f 3c dc a0 3f 36 62 81 3e
       -0.7839551 1.0986981 1.256721 0.25270241
000020 f1 49 1a 3f 09 0f 06 40 88 f4 94 3f 06 5d 85 3f
       0.60269076 2.0946677 1.1637125 1.0419014
000030 41 19 7e bc 8d dd f9 3f 3f a4 3e bf 89 c1 36 3f
       -0.015508951 1.9520737 -0.7446937 0.7138906

bias f4 [16]
000000 97 ea d3 be 3e 94 96 be 2e dd a4 bd 2e 5b 01 bf
       -0.41389915 -0.29409975 -0.08049999 -0.50529754
000010 8f 56 c1 bb d3 d9 6c be 6f 93 b8 be e3 78 29 be
       -0.005900211 -0.23129968 -0.36049983 -0.16550021
000020 5d dd 53 be a7 97 2e be 12 fa cd be 15 29 eb be
       -0.20689912 -0.17050038 -0.4022985 -0.4592978
000030 27 b6 e2 bd 50 7b 03 3d 37 1a 00 be 28 83 c0 bc
       -0.11069899 0.03210002 -0.1251 -0.02350004

running_mean f4 [16]
000000 c8 a0 15 3d c2 1b 52 3f 58 9a 0c 9e 9d 66 ca 40
       0.036530286 0.82073605 -7.443456e-21 6.325026
000010 a8 ae fa 1d 8a 14 5b 40 a4 f6 6c 3c 66 89 f3 40
       6.635504e-21 3.4231286 0.014463101 7.6105223
000020 20 82 9d 40 a9 35 4d 9e 64 8d 9c 3f 74 7d 1e 3d
       4.9221344 -1.0863706e-20 1.2230649 0.03869386
000030 59 73 c0 23 f7 23 b3 9a ab 5f 61 9a ed 17 0e 3f
       2.0865533e-17 -7.409077e-23 -4.660619e-23 0.5550526

running_var f4 [16]
000000 c2 e9 31 3c 17 77 b0 3e 04 00 00 00 c7 68 19 42
       0.010858955 0.34465858 6e-45 38.35232
000010 04 00 00 00 dd 6a 99 40 fa 3d 20 3b 0c 45 d0 43
       6e-45 4.794295 0.0024451003 416.53943
000020 16 b2 18 40 04 00 00 00 76 0d 39 3f 8d 06 3b 3c
       2.3858695 6e-45 0.72286165 0.011415136
000030 1f 02 59 02 04 00 00 00 04 00 00 00 8a c4 8e 39
       1.5943251e-37 6e-45 6e-45 0.00027230784

weight f4 [16, 16]
000000 06 3c 19 bf 96 3a 1c bf e5 0f 45 bf 7f 3f 72 bf
       -0.59857213 -0.61026895 -0.7697738 -0.9462814
000010 9d c2 27 3f 84 bc cb be 4f c0 c5 bd cd d1 35 bf
       0.6553133 -0.39792264 -0.096558206 -0.71023256
000020 0c 6a ea bd e0 0d 5f 3e 2f c1 52 bf 3c 1e 85 3d
       -0.11446008 0.21782637 -0.82326025 0.064999074
000030 00 67 f1 3e fe 53 d0 3c fa e0 a6 3e fc c0 c4 bd
       0.47148895 0.025430676 0.32593518 -0.09607121
000040 43 98 c6 be 4b af 81 3e 26 3e 18 bd 22 e3 8a 3f
       -0.3878804 0.2532905 -0.037168644 1.0850565
000050 e7 a3 29 be 4e b2 96 3f 9e 13 b8 be 46 5a ed 3e
       -0.1656643 1.1773164 -0.35952467 0.46357936
000060 ef 05 17 3f 3a ac d7 be d4 c0 f9 3e 71 81 e3 bd
       0.5899343 -0.42123586 0.4877993 -0.11108673
000070 3d 30 0a bf 20 af 07 be b4 72 2e bd 10 65 c8 be
       -0.53979856 -0.13250399 -0.04258986 -0.39139605
000080 7e 9a df bd 02 ae 52 be 82 ae fc 3e f5 b0 e0 be
       -0.10918139 -0.20574191 0.4935189 -0.43885008
000090 8a 3c f4 be 58 59 02 bf 38 95 3f bf 16 5f fc 3d
       -0.47702438 -0.5091758 -0.74837065 0.12322824
0000a0 64 c5 01 bf d7 1e c1 3e c0 7e c6 be a7 ef fe bc
       -0.5069182 0.3771884 -0.38768578 -0.031120135
0000b0 f3 39 ec be 8e a2 0b be 38 1b 10 3e 7b 90 c2 bd
       -0.46137962 -0.13636228 0.14072883 -0.09500214
0000c0 d9 74 75 bf 7f 83 8b be d4 b9 17 3e 8a 2e dd be
       -0.9588142 -0.2724876 0.14816982 -0.4319957
0000d0 52 9c 57 be 81 e8 aa be 1b 7c 70 bf 17 1a 4e bc
       -0.21055725 -0.3338051 -0.9393937 -0.0125794625
0000e0 73 23 75 be 0b 09 6d 3e 68 89 bd be f4 70 89 be
       -0.23939304 0.23147981 -0.37018895 -0.2684399
0000f0 26 2d 8b be b0 ee cf bc a9 c3 a7 3d d6 e4 af 3d
       -0.27182883 -0.02538237 0.08191616 0.08588569
000100 5f 20 ce be a1 cc 0f be 96 53 b0 3e cb 9e 8f be
       -0.40259072 -0.14042903 0.3443877 -0.28050837
000110 a6 df f5 bd a7 05 12 bf 65 e0 09 bf cd b3 95 be
       -0.12005548 -0.57039875 -0.53858024 -0.2923874
000120 9d d2 a0 be 3e c6 2d 3e c2 e4 92 be 29 a9 2f bf
       -0.31410685 0.16970155 -0.28690153 -0.6861749
000130 e1 56 d4 3d 12 7b a8 be f4 6b 11 3e fa 42 0c bd
       0.10368133 -0.32906395 0.14201337 -0.03424356
000140 54 8c 68 be ea 90 3c bf 4d dc 54 bf fd 33 08 bf
       -0.22709781 -0.7365862 -0.8314865 -0.5320433
000150 4f 17 ca bc aa 83 57 be f9 aa 07 be 3e 97 1f 3e
       -0.024669318 -0.2104632 -0.13248815 0.15585038
000160 c7 28 eb 3d a2 cf 03 be fa 5f 27 bf e9 9e 08 3d
       0.11482387 -0.12872174 -0.65380824 0.033354674
000170 bf 92 6f 3e 15 93 20 be bb 83 71 3e 71 db 8b 3f
       0.23395823 -0.15681107 0.23585407 1.0926343
000180 92 35 4a be 9b 9b 86 be 90 01 f2 3e ba ab 8d be
       -0.19746998 -0.26290593 0.47266817 -0.2767008
000190 bc 9f 44 3e 32 e4 8f bf c6 99 c1 be 7b c8 25 be
       0.19201559 -1.1241515 -0.37812632 -0.16189758
0001a0 a8 71 67 bf 33 f1 1a be b5 f4 17 bf 48 a5 09 3e
       -0.904078 -0.15131073 -0.5935777 0.13441956
0001b0 8c b6 d7 3e 06 93 8d 3e d5 63 0a be e1 fd 09 3f
       0.4213146 0.27651232 -0.13514645 0.53903013
0001c0 61 09 67 bd 1c 22 82 3d d0 bf ea bd 4c b3 9e 3f
       -0.05640543 0.06354162 -0.114623666 1.2398467
0001d0 7f 30 b5 be 44 fc 1a 3f a2 e0 a6 3d 69 d8 ae 3e
       -0.35388562 0.60541177 0.08148314 0.34149483
0001e0 7e 6b 24 3e c0 d2 5b be bd 3b e9 3e 71 da 00 3f
       0.1605663 -0.21467113 0.4555339 0.50333315
0001f0 1e 02 ec 3d ab d1 dd bd 21 f3 17 3e a7 ec 1b be
       0.11523841 -0.108310066 0.1483884 -0.15226994
000200 a5 ae 2e bf d5 b8 ab be 6a fb 41 3f 94 30 f3 be
       -0.68235236 -0.33539453 0.7577425 -0.47498
000210 a8 63 91 be db da 8f bd 69 99 14 bf 80 0b fa 3d
       -0.28396344 -0.07024165 -0.58046585 0.12209225
000220 ea 11 a5 be 57 af 63 3f 4c 1c b0 bc 5e 99 d8 be
       -0.3224023 0.8893942 -0.021497868 -0.4230451
000230 5c 26 9e bf 9f 4b 50 bf a7 69 9d 3f 49 e0 ce be
       -1.2355456 -0.8136539 1.2297868 -0.4040549
000240 09 74 2b bd 0a 0c 57 bd 07 e5 0f be f3 a3 48 bf
       -0.041858707 -0.052501716 -0.14052211 -0.78375167
000250 7b b9 04 3f 9e 40 f2 be bc 87 26 3f 38 b0 83 bf
       0.5184552 -0.47314924 0.65050864 -1.0288153
000260 91 10 12 bf 75 13 1a 3d a0 fb 0b bf 28 24 20 3f
       -0.5705653 0.037616212 -0.54680824 0.6255517
000270 d2 64 e1 3c 59 c4 e2 3d fb bd c6 bd 32 a3 25 bf
       0.027513895 0.110726066 -0.09704205 -0.6470214
000280 71 9b 4a 3f 3e fe ba be 78 4c 69 3f 20 16 0f be
       0.79143435 -0.36522096 0.9113231 -0.13973284
000290 c4 17 ae be 99 31 46 bf ce d7 90 3e 20 45 28 be
       -0.34002507 -0.7741943 0.28289646 -0.16432619
0002a0 a5 07 46 bf 80 3a f2 be cc 20 87 be 29 9d 2a 3f
       -0.77355415 -0.47310257 -0.2639221 0.6664606
0002b0 fe 46 d8 be e5 60 ca 3c 04 50 81 be fc 50 5b 3f
       -0.42241663 0.024704406 -0.2525636 0.8567045
0002c0 dc 93 a5 be e1 8d 3c bd 53 99 7f 3e 1d b7 6c bf
       -0.3233937 -0.046033744 0.24960832 -0.9246691
0002d0 f0 ad bd be ec 87 98 bf 80 58 8f 3e 85 57 4d bf
       -0.37046766 -1.191648 0.27997208 -0.8021167
0002e0 9f 17 23 bf 5f f9 d0 3d cb 6f 23 bf e6 5c 86 3e
       -0.6370792 0.10203814 -0.6384246 0.2624275
0002f0 20 0b 13 3f 5e 06 21 bf a2 2d 2c 3f bc 1a ef 3e
       0.5743885 -0.6290034 0.6725713 0.46700084
000300 2c 20 0e bf 39 71 cb bf c3 83 d1 3e c9 27 27 bf
       -0.5551784 -1.5893928 0.4092084 -0.6529508
000310 35 b2 02 3f d8 6b 34 bf c2 ed fd 3d 1f 81 3f bd
       0.5105317 -0.70477057 0.12398864 -0.046754
000320 f0 c0 13 3f 2c 7d e0 3e a5 67 76 bf f4 2d 29 be
       0.57716274 0.438455 -0.962519 -0.16521436
000330 ad 5d 99 3c 39 9a 37 bf 15 cc 24 3f 60 a7 91 be
       0.018721426 -0.717197 0.64373904 -0.2844801
000340 1f bf 74 bd 53 51 22 bf fb dc 8d 3d d9 57 eb be
       -0.05975258 -0.6340534 0.06926914 -0.4596546
000350 59 bc 5c bc 3a 2c 04 be 08 56 f2 bc d6 93 10 be
       -0.01347264 -0.12907496 -0.029582039 -0.14118895
000360 31 42 c8 bc 8a c1 62 3e 31 f9 00 bf 0e d3 8e be
       -0.024445625 0.22144142 -0.50380236 -0.27895397
000370 48 0e 32 3d 49 1b 22 be 13 17 64 3e 6b 2b a7 be
       0.04347065 -0.15830721 0.22274427 -0.32650313
000380 8c 4f c1 3e df 9e 8a be 64 e3 9c be b2 9c 33 bf
       0.37756002 -0.27074334 -0.30642235 -0.70160973
000390 15 fb d6 be 6d b8 66 bf 72 16 40 be 07 8e 45 bd
       -0.41988435 -0.9012516 -0.18758562 -0.04823115
0003a0 7e c2 5e bf 17 4c 2f be 3a 7c 2d bf 5e 38 3f 3e
       -0.8701552 -0.1711887 -0.6776768 0.18673846
0003b0 68 de 1e 3f ea d4 ba 3d 7f 38 d6 3c 60 66 5c 3f
       0.62058115 0.091226414 0.026149986 0.8609371
0003c0 d0 4c ce 3e fe c0 37 3e c2 0a 4f bf f3 a1 14 be
       0.40292978 0.17944714 -0.8087579 -0.14514904
0003d0 84 29 12 3f d4 12 95 be ce 89 13 3f 78 c8 69 bf
       0.570946 -0.29115927 0.5763215 -0.91321516
0003e0 60 58 6f bf 9a 70 47 3e 5e 54 98 be d0 88 cf 3e
       -0.93494225 0.19476548 -0.29751867 0.40534067
0003f0 8d 51 b3 ba d2 d9 f5 3e ca 15 90 be 47 e1 3d be
       -0.001368092 0.48017746 -0.28141624 -0.18542968

bias f4 [16]
000000 67 c5 16 3d cc 54 ec 3c 4e 65 33 3f 2b 24 f5 3b
       0.03680935 0.028849028 0.70076454 0.007481118
000010 86 77 68 3e 67 2d 02 be 81 a5 02 be e8 ba c5 be
       0.22701845 -0.12712632 -0.12758447 -0.3861916
000020 7d ce 9d 3f 1a a9 93 3e 9c 6b 71 3d 86 26 ec 3e
       1.232864 0.28839952 0.058940515 0.4612314
000030 a8 59 8a bb 21 34 42 3e 9a 96 b1 3e a2 a1 b0 be
       -0.0042221136 0.18965198 0.34685212 -0.34498316

powers f4 [16]
000000 ec aa 87 3f 66 88 99 3e a5 8f 79 3f fe 43 59 3f
       1.0599036 0.29986876 0.9748481 0.8486937
000010 14 11 57 3f 5e 89 8a 3f 6c 03 a0 3f a5 cd 07 40
       0.84010434 1.0823171 1.2501044 2.1219265
000020 ce 45 bd 3e f6 25 ad 3f b3 77 a3 3f e6 c4 01 3f
       0.3696732 1.352721 1.2770904 0.5069107
000030 b7 0b 76 3f 37 c0 b4 3f 4f 46 55 3f 56 42 d9 3f
       0.96111625 1.4121159 0.8331041 1.6973369

muls f4 [16]
000000 5e e9 b0 3f ac 0f e7 3f 29 5e 39 3f 72 9f a1 3e
       1.3821218 1.8051658 0.724093 0.3156696
000010 be e9 a0 3e 99 ef c0 3f 73 f8 43 3f f5 45 22 40
       0.3142833 1.5073119 0.7655098 2.5355198
000020 ae e4 b8 3e 41 cf 16 3f be fa 94 3f 83 24 07 3f
       0.3611197 0.58909994 1.163902 0.5279009
000030 36 c9 03 40 f4 9d ba 3e 96 60 f8 3e 21 33 fe 3f
       2.059156 0.36448634 0.4851119 1.9859353

weight f4 [16]
000000 ce 70 0d 3f 20 ca 8b 3f 92 0b d1 3e 4e ff 51 3f
       0.5525025 1.0921059 0.4082914 0.8203019
000010 cd 1c 79 3f 75 ad 17 3f 58 33 9c 3f f5 57 a2 3f
       0.9730957 0.5924905 1.2203169 1.2683092
000020 9e ac 9e 3e 0d 00 01 3f 9f 93 48 3f f6 dd 8b 3f
       0.3099107 0.503907 0.7835025 1.0927112
000030 5c 6a 97 3f 60 fb 93 3f 7a 92 7b 3f e9 ba 06 3f
       1.1829333 1.1561089 0.9827038 0.5262895

bias f4 [16]
000000 ee 6e a1 be ca f7 72 3f 0d 06 30 be 3f d9 dd be
       -0.31529945 0.94909346 -0.17189808 -0.43329808
000010 29 93 f8 be 68 54 12 be 0a 69 1f bf 02 e2 b8 3e
       -0.48549774 -0.14290011 -0.6226965 0.3610993
000020 68 b1 ce be 41 21 5f 3e 9c 24 56 3f 5a 43 1b bf
       -0.40369725 0.21790029 0.8364961 -0.60649645
000030 19 94 26 bf ba f2 bf be 35 31 48 be 13 e2 07 3e
       -0.6506973 -0.37489873 -0.19550021 0.13269834

running_mean f4 [16]
000000 63 14 5a 40 bc 67 56 3f 4f 1c ad 3f 72 de fe 3e
       3.4074943 0.83752036 1.3524264 0.49779087
000010 2f a6 ea 3e d7 99 f3 3f a7 0a cf 3f a4 cf fb 40
       0.45829913 1.9031323 1.6175126 7.8690968
000020 03 20 e3 3e 40 02 dd 3f b1 d9 bd 3f 7e 4d 24 3f
       0.4436036 1.7266312 1.4832059 0.64180744
000030 1a 45 a1 40 91 17 52 3f c8 7d 4e 3f c2 75 30 40
       5.0396852 0.8206721 0.80660677 2.7571874

running_var f4 [16]
000000 3d ce 13 41 e8 a4 b4 3f 61 64 89 3f 67 de 02 3e
       9.237851 1.4112825 1.0733758 0.12780152
000010 fe 4c dd 3d 60 84 2b 40 a0 2b 2d 40 ea eb 57 45
       0.10805701 2.6799545 2.7057877 3454.7446
000020 bf 01 0e 3d dc 19 00 41 18 9b 98 41 42 1f 60 3e
       0.034669634 8.006313 19.07573 0.21886924
000030 5f 18 b1 41 18 7e 32 3f b1 a3 f7 3e 31 bb 80 43
       22.1369 0.69723654 0.48367074 257.46243

weight f4 [12, 16]
000000 49 41 9b be 57 49 17 3f e7 d3 4d be ec 61 6c be
       -0.30323246 0.5909628 -0.20100366 -0.23084229
000010 4e ff 59 be 2d 3f 34 bc ba b9 e9 be 6f 38 10 3f
       -0.21288797 -0.01100139 -0.4564951 0.5633611
000020 bc cd 98 bd 7b c8 f0 be e0 f5 3f 3f 64 6a 2e bf
       -0.07461116 -0.47027954 0.7498455 -0.6813109
000030 1b a5 2d bf 91 72 06 bf a1 0a e5 be 42 20 5d be
       -0.67830056 -0.52518564 -0.44734672 -0.21594337
000040 3a d0 09 bf 6b d1 32 3f cc bb 74 3e d2 9a 8d bd
       -0.53833354 0.69850796 0.23899764 -0.06914295
000050 0a 80 29 bd 97 30 a3 be 7f 34 a7 be 6c fc 72 3e
       -0.041381873 -0.3187301 -0.3265724 0.23729104
000060 9c cb 6b 3e 4c 48 3d be fa 0c b6 3e 0c d0 2e bf
       0.2302689 -0.1848461 0.35556775 -0.68286204
000070 69 2d 06 bf 4a 99 ce be f4 32 2e be 3c b4 71 be
       -0.5241304 -0.40351325 -0.17011625 -0.2360391
000080 34 a4 99 be 4f 0b 19 3f 36 ed 63 3e 0e d8 71 be
       -0.3000809 0.5978288 0.22258458 -0.23617575
000090 07 17 52 be d6 47 01 bf 77 40 26 bf 50 cb ff 3e
       -0.20516597 -0.5050024 -0.64942116 0.49959803
0000a0 8c 0c d4 3b 5f 56 89 be fa a7 fb 3e 8e 4c e8 be
       0.0064712223 -0.26823708 0.49151593 -0.45370907
0000b0 9b 56 0f bf 66 e4 04 bf fb dc d2 be 58 6f 59 be
       -0.55991524 -0.5191101 -0.4118422 -0.2123388
0000c0 d2 ff 09 bf 9d cd 23 3f 84 59 be bd 7e 47 0e be
       -0.53905976 0.63985616 -0.092944175 -0.1389446
0000d0 f2 0c 4f be bc ed a4 be 0c 9d 17 bf 0b 19 b9 3e
       -0.20219782 -0.32212627 -0.5922401 0.3615192
0000e0 ff 40 be 3d 37 1c fa be ba f5 f7 3e cd 09 ac be
       0.09289741 -0.4884965 0.48429662 -0.33601227
0000f0 6c 76 48 bf b7 5f 2f bf 04 c2 2a be fd f9 86 be
       -0.783057 -0.68505424 -0.16675574 -0.263626
000100 76 83 49 bb 8b 5b b0 3d a5 65 0e 3d a8 05 8c bd
       -0.0030748523 0.086112104 0.034764905 -0.06837016
000110 c6 a8 98 be 69 c8 a1 3d 94 38 af 3e d6 2f 36 3f
       -0.29816264 0.07899553 0.34222853 0.7116674
000120 58 f2 16 3e f2 e5 fc 3d 40 8b e3 3e 41 bd 8b bd
       0.14740884 0.12348546 0.44442177 -0.06823207
000130 77 6c 14 3d 30 66 d6 be a6 43 47 bd 58 7e 80 3d
       0.036236253 -0.41874838 -0.0486485 0.06274098
000140 94 0e e3 bc 69 51 e9 3d f2 8e 81 be c9 59 99 3d
       -0.027716912 0.11392481 -0.2530437 0.07487828
000150 58 4f 01 3d 49 d0 44 3e d1 a3 c7 3e ee 3c 34 3f
       0.03156981 0.1922008 0.3899217 0.7040547
000160 9d 3c 30 3e c3 d8 35 3d 1f 71 2d 3e 74 92 b4 3d
       0.17210622 0.044396173 0.16937684 0.08816996
000170 62 f6 77 be 0e 51 a3 be 18 4a 39 3c 10 12 ab 3e
       -0.24215081 -0.31897777 0.011309169 0.33412218
000180 5e d2 ad 3e 14 24 65 3e 23 b4 04 3e 07 19 d5 3c
       0.3394956 0.22377044 0.12959342 0.02601291
000190 fa 7a ec bd 79 15 a9 3d e2 0f 09 bd b0 b6 aa 3e
       -0.115468934 0.08256049 -0.033462413 0.33342505
0001a0 96 48 9a 3c b1 0d ac bd 39 40 85 3c 34 a6 de bd
       0.01883344 -0.08401049 0.016265975 -0.108715445
0001b0 03 cc 0c 3e 8e 3b f1 be 5e 80 37 3b 05 ce 91 bd
       0.137497 -0.4711575 0.0028000097 -0.07119373
0001c0 ef ab 66 3d bc 11 46 3d f5 d0 19 bd 1b 49 c6 3d
       0.056316312 0.048356757 -0.037552793 0.096819125
0001d0 a9 02 2e be b0 5c 24 3e 25 2b b1 3e fc c1 2b 3f
       -0.16993202 0.16050982 0.3460323 0.6709287
0001e0 69 f6 d9 3e a4 e2 cc 3d 4e 8b f0 bd 89 65 6b 3e
       0.4257081 0.10004166 -0.1174532 0.22987951
0001f0 be 92 30 be f6 69 db be 6c 83 f8 bd d0 19 94 b8
       -0.17243478 -0.4285428 -0.12134442 -7.061998e-05
000200 90 54 a4 be 0f 22 d7 3e d4 83 61 3e fa 10 f0 bc
       -0.32095766 0.42018172 0.22022945 -0.02930497
000210 c3 7c 25 be b6 8c cf be ab 70 39 be 44 ba 04 3f
       -0.16160874 -0.4053704 -0.18109386 0.5184672
000220 bd ec 93 be af 14 79 bd f2 90 fd bd 9e 97 79 be
       -0.28891554 -0.06081074 -0.12381162 -0.24374244
000230 9f bf 0e be ed 4a aa 3d 3d de b6 be 93 48 ec be
       -0.13940285 0.08315072 -0.3571643 -0.4614912
000240 dc 74 c8 be 50 e7 17 3f 2e 31 d3 bd 1c ae 16 3e
       -0.39151657 0.5933733 -0.10312115 0.14714855
000250 bc 7d e9 bd 38 e4 ac bb 2c e7 0d be 92 ec 05 3f
       -0.11400935 -0.005276229 -0.13857716 0.523141
000260 61 f1 3f 3e 08 4a 38 be df 01 93 3c c3 90 8e be
       0.18744422 -0.1799699 0.017945228 -0.2784482
000270 78 57 02 be 0b 19 11 3e 74 cd 11 bf ab 52 f7 be
       -0.12728679 0.1416971 -0.5695412 -0.48305258
000280 8c 3a 9b be 72 55 28 3e a0 bb 60 bb 92 f6 9e be
       -0.30318105 0.16438845 -0.003429152 -0.31047493
000290 3e 6f db be be 0b fa bd e4 ef 36 be 00 49 08 3f
       -0.4285831 -0.12209271 -0.17864949 0.5323639
0002a0 98 0c bd bd 9c ca 86 be 0a e5 bf be f8 66 ee be
       -0.09230918 -0.26326454 -0.3747943 -0.46562934
0002b0 76 2f 63 be f0 d4 8b 3c e1 40 07 bf b7 b3 30 be
       -0.22186074 0.01706931 -0.5283337 -0.17256056
0002c0 b9 12 fc bc fc 4c 66 3e 51 55 8f 3e f3 ff aa 3b
       -0.030770646 0.22490305 0.2799478 0.0052185
0002d0 df 38 0c bf c7 66 31 be 54 4c 32 be 04 08 0b 3f
       -0.5477428 -0.17324363 -0.1741193 0.54309106
0002e0 34 aa 26 be 80 5c 09 bf f9 f2 84 be ce e8 c3 be
       -0.16275865 -0.5365677 -0.25966623 -0.38263553
0002f0 28 30 1f be b7 8f c8 bc 75 c8 43 be 60 a9 3f be
       -0.15545714 -0.024482591 -0.19119437 -0.18716955

bias f4 [12]
000000 38 f7 6f 3f c6 cf 0b 3f 46 52 1c 3f ce 0a 53 3f
       0.937366 0.5461391 0.6106304 0.8243836
000010 95 59 30 3d b8 ad 17 3e 7b e5 7a be 64 ab 0d be
       0.043054182 0.14812362 -0.24501602 -0.13834912
000020 0c 2c ec 3e 73 1f 22 3f 3b 14 14 3f 5e 04 83 3e
       0.46127355 0.6332924 0.5784337 0.2558927
