lightencoder (3).pt (torch, 86611 bytes, 74 tensors)

weight f4 [4, 3, 8, 8]
0	0xbf003b74	-0.5009072
1	0xbeb3507b	-0.3502234
2	0xbeaeb8dd	-0.34125414
3	0xbe9bdef3	-0.30443534
4	0xbeb9e6a8	-0.3630879
5	0xbe4d2673	-0.20034198
6	0xbe086cc7	-0.13322745
7	0xbe4c7fc6	-0.19970617
8	0xbec23ee0	-0.37938595
9	0xbe7eb878	-0.24875057
10	0xbe8aa11b	-0.2707604
11	0xbe36b8d0	-0.17843938
12	0xbdfbde4a	-0.12298258
13	0xbdb35428	-0.08756286
14	0xbab93bc1	-0.0014132188
15	0xbca69113	-0.020332849
16	0xbe90f107	-0.2830889
17	0xbdcceb2a	-0.100057915
18	0xbe15a39a	-0.1461319
19	0xbcb16294	-0.021653451
20	0xbd804d8f	-0.06264793
21	0x3dd8a780	0.10578823
22	0x3e1de26b	0.15418403
23	0x3e0c9377	0.13728128
24	0xbddf1892	-0.10893358
25	0x3e0a26a3	0.13491301
26	0x3df9be26	0.12194471
27	0x3e11d142	0.14239982
28	0x3e05b17b	0.13055985
29	0x3e441807	0.1914979
30	0x3e1bc27b	0.15210907
31	0x3e74a800	0.23892212
32	0x3dae717a	0.08517738
33	0x3ebe2f4f	0.3714547
34	0x3e951d17	0.29123756
35	0x3e93b0f1	0.28845933
36	0x3e5fefcd	0.2186882
37	0x3e836d35	0.25669256
38	0x3e1f76d5	0.15572675
39	0x3d8fa034	0.07012978
40	0x3e8004e5	0.25003734
41	0x3ee1d025	0.44104114
42	0x3f00060f	0.50009245
43	0x3ef6cbb1	0.4820228
44	0x3e811b94	0.25216353
45	0x3e8fe7ca	0.2810653
46	0x3e37c3b4	0.17945749
47	0x3c8d4165	0.017243097
48	0x3eb6ca5c	0.35701263
49	0x3efbdeda	0.4919346
50	0x3f091dfc	0.5356138
51	0x3f06fe48	0.5273175
52	0x3eaa9249	0.33314732
53	0x3e9eeec8	0.3104155
54	0x3e1ae55d	0.15126558
55	0xbbae3310	-0.0053161457
56	0x3db49234	0.088169485
57	0x3eaf8da2	0.34287745
58	0x3ee1352d	0.43985882
59	0x3ee2c941	0.4429417
60	0x3e9bab56	0.30404156
61	0x3e252752	0.16128281
62	0xbd1583dc	-0.036502704
63	0xbe8426f0	-0.25810957
64	0xbe74e69d	-0.23916097
65	0xbe495e28	-0.19664824
66	0xbe88c207	-0.2671053
67	0xbe8fd02d	-0.28088513
68	0xbe1a60fb	-0.15076058
69	0xbdbd94fe	-0.09256934
70	0xbe078ed6	-0.13238081
71	0xbdb91a01	-0.09038163
72	0xbe11161b	-0.14168589
73	0xbe0e8b39	-0.13920297
74	0xbe0932f1	-0.13398339
75	0xbdbd3589	-0.09238727
76	0xbdd647ec	-0.10462937
77	0xbd94ff2a	-0.07275231
78	0x3d588eea	0.05287067
79	0xbd66fa1f	-0.056390878
80	0xbda585f2	-0.08082189
81	0xbd618334	-0.055056766
82	0xbd973102	-0.073823944
83	0xbe03bb1d	-0.12864347
84	0xbc2f3dee	-0.0106959175
85	0xbcdc35ab	-0.02688106
86	0xbc822e1e	-0.015891131
87	0x3c9b0199	0.01892166
88	0x3d577adc	0.052607402
89	0x3db2996c	0.08720669
90	0x3c1fb088	0.009746678
91	0x3c473c1c	0.012160327
92	0x3d5fed4c	0.054669663
93	0xbc3bb2b8	-0.011456184
94	0x3dec88be	0.11549519
95	0xbca3874a	-0.019961972
96	0x3e15d406	0.14631662
97	0x3e8cf454	0.27530158
98	0x3ea46920	0.32111454
99	0x3e29cd61	0.16582252
100	0x3dd49900	0.10380745
101	0x3d82f25a	0.06393881
102	0xbd02bba1	-0.031917218
103	0xbde8b452	-0.11362518
104	0x3e790f9b	0.2432236
105	0x3edde6e1	0.4334021
106	0x3ec89176	0.39173478
107	0x3ebd9a68	0.37031865
108	0x3e47f975	0.19528754
109	0x3dbacdec	0.09121308
110	0x3c384b2e	0.011248393
111	0xbe473608	-0.19454205
112	0x3e88f1bc	0.2674693
113	0x3ef95c98	0.48703456
114	0x3ef5d0cd	0.48010865
115	0x3ed0d17a	0.40784818
116	0x3e39d1c5	0.18146427
117	0x3dc5c758	0.096571624
118	0x3d623190	0.055223048
119	0xbe6458fe	-0.22299573
120	0x3d6b4dbe	0.057447188
121	0x3e9bce5a	0.3043087
122	0x3ee538c7	0.4476988
123	0x3ed2adb3	0.41148147
124	0x3e5cc933	0.21561126
125	0xbcb8c333	-0.022554016
126	0xbdbd1140	-0.09231806
127	0xbef176c8	-0.47160935
128	0x3e428bcc	0.18998641
129	0x3e25a175	0.16174872
130	0x3dff9b4e	0.12480794
131	0x3e0b9f35	0.13634951
132	0x3dd0c6da	0.10194178
133	0x3d744f09	0.059645686
134	0x3dc31030	0.09524572
135	0x3dc679ee	0.09691225
136	0x3d9ba605	0.07600025
137	0x3e26a43a	0.16273585
138	0x3d247d81	0.040158752
139	0x3d114cea	0.03547374
140	0xbc98b98b	-0.018643161
141	0x3dcf7190	0.10129082
142	0x3df91a52	0.12163223
143	0x3cc29f02	0.023757461
144	0x3ba1962c	0.004931232
145	0x3dc49cc4	0.09600213
146	0xbdcdcacc	-0.10048446
147	0xbccb05b1	-0.024782987
148	0xbb85737e	-0.0040726056
149	0xbca02dd2	-0.019553099
150	0x3d9bcca0	0.076073885
151	0xbcfcd637	-0.030863864
152	0xbcd31e88	-0.025771394
153	0x3d4cc9fd	0.04999732
154	0xbceeef7b	-0.029166928
155	0xbdbf48f0	-0.093400836
156	0xbe30f02e	-0.17279121
157	0xbce56b6c	-0.028005324
158	0xbdf03886	-0.11729531
159	0xbe12fcf9	-0.14354314
160	0x3dadab18	0.08479899
161	0x3e047903	0.12936787
162	0x3dede940	0.116167545
163	0x3d386bc6	0.045024656
164	0xbe1cf71e	-0.15328643
165	0xbe6f366a	-0.23360601
166	0xbe729348	-0.23688996
167	0xbeac3119	-0.3363121
168	0x3d8fe2a2	0.07025649
169	0x3dfcf44e	0.12351285
170	0x3e14be5f	0.14525746
171	0xbc91277e	-0.017719027
172	0xbe121455	-0.14265569
173	0xbe9e3d89	-0.30906323
174	0xbe899e4f	-0.26878592
175	0xbeeaa72b	-0.45830664
176	0x3dbbc6c6	0.091687724
177	0x3e543223	0.2072225
178	0x3e2c1a52	0.16806915
179	0x3de46f82	0.11154081
180	0xbdd385ed	-0.10328279
181	0xbe5cd12c	-0.21564168
182	0xbea358c9	-0.31903675
183	0xbf0bc071	-0.5459052
184	0x3c4bf9a6	0.012449658
185	0x3e67595d	0.22592683
186	0x3e462c8c	0.19352931
187	0x3cdfdf5c	0.027328186
188	0xbdf03524	-0.11728886
189	0xbe8175ec	-0.2528528
190	0xbee069e7	-0.43830797
191	0xbf2c35ae	-0.6726941
192	0xbedff6e1	-0.4374304
193	0xbe9f5396	-0.31118459
194	0xbea4db0d	-0.32198372
195	0xbd81b171	-0.063326724
196	0x3d85fae6	0.06541996
197	0x3e7edf12	0.24889782
198	0x3e5bb380	0.21455193
199	0x3ed622a0	0.41823292
200	0xbe471492	-0.1944144
201	0xbe286cc0	-0.16447735
202	0xbcd5fe70	-0.026122302
203	0x3d562bf7	0.052288022
204	0x3e7ee328	0.2489134
205	0x3eae41e3	0.34034643
206	0x3ee9791f	0.4560022
207	0x3f2990bf	0.6623649
208	0xbde01dfa	-0.109432176
209	0xbe023787	-0.12716495
210	0xbc594aec	-0.013262492
211	0x3dc0a3c2	0.09406234
212	0x3e4e6bfb	0.20158379
213	0x3ebcb670	0.3685794
214	0x3efc8b94	0.4932524
215	0x3f4f2fa4	0.8093207
216	0xbe1f7323	-0.15571265
217	0xbdaab4e4	-0.083352834
218	0xbdc54a5c	-0.096333236
219	0xbd26c107	-0.04071143
220	0x3e2c4974	0.16824895
221	0x3e8b5203	0.27211007
222	0x3ea33878	0.3187902
223	0x3f1bf300	0.60917664
224	0xbdc34636	-0.09534876
225	0xbe3c7bbf	-0.1840658
226	0xbe2b882b	-0.16751163
227	0xbdc2b00f	-0.09506237
228	0xbd51cd4e	-0.051221184
229	0x3a1219a2	0.00055732776
230	0x3deb017e	0.11474894
231	0x3eb465e0	0.35233974
232	0xbe2ab316	-0.16669878
233	0xbe748f1e	-0.2388272
234	0xbe77ee5e	-0.24212024
235	0xbe544593	-0.20729665
236	0xbde2d05a	-0.11074896
237	0xbd9d10b6	-0.07669203
238	0xbd95c975	-0.073138155
239	0x3e46981d	0.19393964
240	0xbe020ddf	-0.12700604
241	0xbe575151	-0.21027113
242	0xbe4b6458	-0.19862497
243	0xbeaba917	-0.33527443
244	0xbe529b29	-0.20567001
245	0xbe2b2d05	-0.16716392
246	0xbdfcb8fc	-0.123399705
247	0xbd3ab9b5	-0.04558726
248	0xbda4676c	-0.08027539
249	0xbe7f60ed	-0.24939318
250	0xbe2f4e03	-0.17119603
251	0xbe47bfb9	-0.1950673
252	0xbded317c	-0.11581704
253	0xbdab4d86	-0.08364396
254	0x3d1fc88c	0.039009616
255	0x3da987c7	0.082778506

bias f4 [4]
0	0x4014a5ed	2.3226273
1	0xc0177179	-2.3663008
2	0x401a53d9	2.4113677
3	0x3d4c5e5f	0.049894687

weight f4 [8, 192]
0	0x3e988a4c	0.29793012
1	0x3ef4d9d0	0.47822428
2	0x3eef7481	0.46768573
3	0x3e9eb9d1	0.31001142
4	0xbe406bde	-0.18791148
5	0xbea85927	-0.32880518
6	0xbe4948de	-0.19656703
7	0xbebac26b	-0.36476454
8	0x3d7d4d6d	0.061841417
9	0x3e6c9f0b	0.23107545
10	0x3e2f90ae	0.17145035
11	0x3d08b5a0	0.033376336
12	0xbef57a8d	-0.4794506
13	0xbf1fde02	-0.6244813
14	0xbf157937	-0.58388084
15	0xbf51a28c	-0.8188865
16	0x3d74980f	0.059715327
17	0x3e62c588	0.22145665
18	0x3e231496	0.15925822
19	0xbdaa539a	-0.08316727
20	0xbf10c636	-0.56552446
21	0xbf4ce078	-0.8003001
22	0xbf4b2883	-0.7935869
23	0xbfab8e4b	-1.3402799
24	0x3e181403	0.14851384
25	0x3dc659c3	0.096850894
26	0x3d9008f3	0.07032957
27	0xbdd22888	-0.10261637
28	0xbf1feac9	-0.6246763
29	0xbf439326	-0.76396406
30	0xbf6ebd28	-0.9325738
31	0xbfd9db11	-1.7019979
32	0x3e104539	0.14088906
33	0x3cfbdebb	0.030745855
34	0xbe010aa2	-0.12601712
35	0xbe92d6bd	-0.28679457
36	0xbf12cce9	-0.5734392
37	0xbf2529f7	-0.6451716
38	0xbf6aa408	-0.9165654
39	0xbfed0728	-1.8517809
40	0x3d6a00c0	0.05712962
41	0xbda1f376	-0.079077646
42	0xbeade700	-0.33965302
43	0xbeb2e788	-0.3494227
44	0xbec7e9bc	-0.39045513
45	0xbeb45dd5	-0.35227838
46	0xbf11cc11	-0.56952006
47	0xbfd843df	-1.6895713
48	0x3d26a4f4	0.040684655
49	0xbe894d7c	-0.26816928
50	0xbef71c0b	-0.48263583
51	0xbe285b8a	-0.1644117
52	0x3d6532c7	0.05595663
53	0x3e54b85e	0.20773456
54	0x3e7b1e8d	0.24523373
55	0xbf547614	-0.8299267
56	0x3c52b716	0.012861034
57	0xbe8e66ad	-0.2781271
58	0xbea1258f	-0.31473967
59	0x3e8ff4ec	0.28116548
60	0x3f717be8	0.9432969
61	0x3fc03626	1.5016525
62	0x3fe3dba4	1.7801404
63	0x3f21221a	0.6294266
64	0xbb5d73a0	-0.0033790842
65	0xbe90ea9e	-0.28304
66	0xbee18a43	-0.44050798
67	0x3e442eeb	0.19158523
68	0x3f82e2d9	1.0225478
69	0x3fbe65b2	1.4874785
70	0x3fd3d621	1.6549722
71	0x3f825571	1.0182325
72	0xbde0817e	-0.10962199
73	0xbedc79bc	-0.43061626
74	0xbf261a73	-0.6488411
75	0x3d9016b2	0.07035579
76	0x3fa2193d	1.2663952
77	0x3fd2f299	1.6480285
78	0x3fdf3c9b	1.744037
79	0x3fa3872a	1.2775624
80	0xbe833635	-0.25627294
81	0xbf4973bc	-0.7869222
82	0xbf802934	-1.0012574
83	0xbe87b067	-0.26501772
84	0x3f7de3d8	0.99175787
85	0x3fd347a2	1.6506236
86	0x3fdc5ba0	1.7215462
87	0x3f94028a	1.1563275
88	0xbead4ef1	-0.3384929
89	0xbf2772ee	-0.65409744
90	0xbf87b1cf	-1.0601138
91	0xbe95d63d	-0.29265013
92	0x3f3b6202	0.73196423
93	0x3fa8e0d4	1.3193612
94	0x3fb9b6df	1.4508933
95	0x3f522f93	0.8210384
96	0xbe184bc2	-0.1487265
97	0xbf01c9ba	-0.50698435
98	0xbf646fd1	-0.8923312
99	0xbee1ff99	-0.44140318
100	0x3e6794ac	0.22615308
101	0x3f3afdcd	0.7304352
102	0x3f804dee	1.0023782
103	0x3d614ee8	0.05500689
104	0x3b955fcf	0.0045585404
105	0xbf0c529e	-0.54813564
106	0xbf359798	-0.7093444
107	0xbedc7ee9	-0.43065575
108	0x3db47340	0.08811045
109	0x3f1c708c	0.6110923
110	0x3f8a7f70	1.0820141
111	0xbb8f09f7	-0.0043652016
112	0xbc62fc90	-0.013854161
113	0xbed05c53	-0.40695438
114	0xbf1f4893	-0.62220114
115	0xbe368133	-0.17822723
116	0x3ecc548a	0.39908248
117	0x3f7a2afd	0.97721845
118	0x3fb82a9e	1.4388006
119	0x3e5cf8b9	0.21579255
120	0x3e84fd49	0.2597449
121	0xbcf9d0e5	-0.030495116
122	0xbdf8eb68	-0.12154275
123	0x3ebaf128	0.36512113
124	0x3f2a4aeb	0.66520566
125	0x3f8dfc95	1.1092707
126	0x3fa12a45	1.2591025
127	0xb9f85278	-0.0004736369
128	0x3edfbeb1	0.43700173
129	0x3eed3e82	0.46336752
130	0x3f208773	0.6270668
131	0x3f48ecfd	0.78486615
132	0x3f2696dd	0.6507395
133	0x3f0c98ac	0.5492046
134	0x3eef161a	0.4669655
135	0xbef7a9b0	-0.4837165
136	0x3eea6f6b	0.4578813
137	0x3f2dd553	0.6790363
138	0x3f3b412a	0.7314631
139	0x3f499864	0.78748155
140	0x3e4204db	0.18947165
141	0xbe5d70db	-0.21625082
142	0xbefb5608	-0.49089074
143	0xbf9a9f71	-1.2079908
144	0x3f0ee52c	0.5581844
145	0x3f34f7f5	0.7069085
146	0x3f4fb3ad	0.8113354
147	0x3f38fcfd	0.7226103
148	0x3de27d30	0.11059034
149	0xbecd3a06	-0.4008333
150	0xbf127cd2	-0.5722171
151	0xbf97e7a0	-1.1867561
152	0x3e9048d4	0.28180563
153	0x3f178885	0.5919269
154	0x3f057214	0.52127194
155	0x3eaa2ef2	0.3323894
156	0xbd7e6317	-0.06210622
157	0xbeba1c9c	-0.36349952
158	0xbf03d499	-0.51496273
159	0xbf6eafae	-0.93236816
160	0x3cc3a40a	0.02388193
161	0x3e261058	0.16217172
162	0x3e3d613c	0.18494123
163	0xbdc8527c	-0.09781358
164	0xbeb944c5	-0.3618528
165	0xbef4b3a0	-0.47793293
166	0xbee3dd55	-0.445048
167	0xbf396917	-0.7242598
168	0xbe700d4e	-0.23442575
169	0x3b04f3b8	0.002028687
170	0x3c363d7c	0.011123057
171	0xbe39a029	-0.18127503
172	0xbeea8e06	-0.4581148
173	0xbf06ba64	-0.5262816
174	0xbe7dd89f	-0.24789666
175	0xbf1904ff	-0.5977325
176	0xbe80f45d	-0.25186434
177	0xbe0e3e74	-0.13891011
178	0xbe1341fc	-0.1438064
179	0xbe3a9b68	-0.18223345
180	0xbed21227	-0.41029474
181	0xbf1a4293	-0.60257834
182	0xbec83698	-0.39104152
183	0xbf37bf69	-0.71776444
184	0xbdce65e3	-0.10078027
185	0x3d760543	0.06006361
186	0xbccfe0be	-0.02537572
187	0x3a4af8c4	0.00077427574
188	0xbea852b8	-0.3287561
189	0xbedeaef6	-0.4349286
190	0xbeacf492	-0.33780342
191	0xbf0f0d16	-0.5587934
192	0xc1331f2f	-11.195113
193	0xc1321c6a	-11.131937
194	0xc131405a	-11.078211
195	0xc131ebb9	-11.120049
196	0xc1311b6d	-11.069196
197	0xc1324494	-11.141743
198	0xc13276c0	-11.153992
199	0xc1314163	-11.078464
200	0xc132f2b9	-11.184258
201	0xc13314a2	-11.192537
202	0xc131455e	-11.079435
203	0xc1320aa9	-11.127603
204	0xc1329bbc	-11.163021
205	0xc13147fa	-11.080072
206	0xc132b616	-11.169455
207	0xc13276a5	-11.153966
208	0xc1331979	-11.193719
209	0xc132bab7	-11.170585
210	0xc132bf33	-11.1716795
211	0xc132bfae	-11.171797
212	0xc1335298	-11.2076645
213	0xc132fbe8	-11.186501
214	0xc1313779	-11.076043
215	0xc1334ceb	-11.206279
216	0xc1330db7	-11.190848
217	0xc1315f5a	-11.085779
218	0xc1332158	-11.195641
219	0xc13278d9	-11.154504
220	0xc132d392	-11.176653
221	0xc131212d	-11.0706
222	0xc132f992	-11.18593
223	0xc1329f7a	-11.163935
224	0xc131b04d	-11.105542
225	0xc1323796	-11.138571
226	0xc131994f	-11.099929
227	0xc132855d	-11.157559
228	0xc13313a6	-11.192297
229	0xc132c6e0	-11.173553
230	0xc1324048	-11.140694
231	0xc1321a04	-11.131351
232	0xc132adf1	-11.167466
233	0xc13284b9	-11.157403
234	0xc131fa74	-11.123646
235	0xc1325bd1	-11.147416
236	0xc13357bc	-11.20892
237	0xc132cb61	-11.174653
238	0xc131ebeb	-11.120097
239	0xc1324c9b	-11.1437025
240	0xc133099b	-11.189845
241	0xc1318a2b	-11.096232
242	0xc131f245	-11.121648
243	0xc1331bc6	-11.194281
244	0xc1332768	-11.197121
245	0xc1324df4	-11.144032
246	0xc1323bf0	-11.139633
247	0xc1327f9e	-11.156157
248	0xc131ebdd	-11.120084
249	0xc13237d6	-11.138632
250	0xc132d101	-11.176026
251	0xc13138bd	-11.076352
252	0xc1316fa6	-11.089758
253	0xc131446e	-11.079206
254	0xc1320525	-11.126256
255	0xc132627d	-11.149045

bias f4 [8]
0	0x40465e6e	3.0995135
1	0xc1329f4a	-11.163889
2	0xc1315fff	-11.085937
3	0xc132cebe	-11.175474
4	0xc1330d34	-11.190723
5	0xc133556a	-11.208353
6	0xc1324b07	-11.143317
7	0xc1323d9a	-11.140039

powers f4 [8]
0	0x3f800000	1.0
1	0x3f800000	1.0
2	0x3f800000	1.0
3	0x3f800000	1.0
4	0x3f800000	1.0
5	0x3f800000	1.0
6	0x3f800000	1.0
7	0x3f800000	1.0

muls f4 [8]
0	0x3f800000	1.0
1	0x3f800000	1.0
2	0x3f800000	1.0
3	0x3f800000	1.0
4	0x3f800000	1.0
5	0x3f800000	1.0
6	0x3f800000	1.0
7	0x3f800000	1.0

weight f4 [8]
0	0x4041daae	3.0289721
1	0x41422606	12.134283
2	0xc1223306	-10.137457
3	0xc1222ad4	-10.135456
4	0xc122123e	-10.129454
5	0xc1222ad4	-10.135456
6	0xc1222ad4	-10.135456
7	0x41420d70	12.128281

bias f4 [8]
0	0xbf10a399	-0.5649963
1	0x3d40830c	0.046999976
2	0x3d50e558	0.05099997
3	0x3ebfffd5	0.37499872
4	0x3ee7ef51	0.4529977
5	0x3e08312d	0.13300009
6	0xbcdd2f1e	-0.027000006
7	0x3e87ae19	0.26500013

running_mean f4 [8]
0	0x4096731b	4.701551
1	0xb22bcc71	-9.999995e-09
2	0xb22bcc71	-9.999995e-09
3	0xb22bcc71	-9.999995e-09
4	0xb22bcc71	-9.999995e-09
5	0xb22bcc71	-9.999995e-09
6	0xb22bcc71	-9.999995e-09
7	0xb22bcc71	-9.999995e-09

running_var f4 [8]
0	0x4093a1ec	4.613516
1	0x00000004	6e-45
2	0x00000004	6e-45
3	0x00000004	6e-45
4	0x00000004	6e-45
5	0x00000004	6e-45
6	0x00000004	6e-45
7	0x00000004	6e-45

weight f4 [8, 8]
0	0x3f8cf241	1.101143
1	0xbdbc8aef	-0.09206187
2	0x3f403226	0.7507652
3	0x3fa27810	1.269289
4	0x40104b5d	2.2545998
5	0x3f9b5dbb	1.2137979
6	0xbe36a904	-0.17837912
7	0x3f2ece36	0.682834
8	0xc06b5e3b	-3.6776264
9	0x3dc990ce	0.098420724
10	0x3dddab82	0.10823728
11	0x3ecdcfc2	0.4019757
12	0x3f35e2f4	0.7104943
13	0x3f26a45e	0.65094554
14	0xbe4ecdfd	-0.20195766
15	0xbdc0b318	-0.094091594
16	0x4098e7e2	4.778306
17	0x3c2fbe62	0.010726543
18	0xbc32453e	-0.010880766
19	0xbf3ee18d	-0.74562913
20	0xbec39aa2	-0.38203913
21	0x3d847764	0.064680845
22	0x3de41cfa	0.11138339
23	0xbed87cec	-0.42282808
24	0x3f530900	0.8243561
25	0x3e2e87f0	0.17044044
26	0x3ebaf02e	0.36511368
27	0x3fc39764	1.5280576
28	0x3f968c7d	1.1761624
29	0x3d63ce9b	0.055616956
30	0xbe144eb2	-0.14483145
31	0x3f380496	0.71882
32	0xbfa280e7	-1.2695588
33	0x3f1fbb31	0.62395006
34	0xbe2e76be	-0.17037484
35	0x3f5e8838	0.86926603
36	0x3f2ed0a0	0.68287086
37	0x3f844194	1.0332513
38	0x3e47bce2	0.19505647
39	0x3f438f2e	0.7639035
40	0x3f1b0818	0.60559225
41	0x3f352a81	0.7076798
42	0xbf4dbcd9	-0.80366284
43	0x3e2b2be9	0.16715969
44	0x3f5b5e7b	0.8569104
45	0x3ef76ed6	0.4832675
46	0x3dca5c38	0.098808706
47	0x3f1a6d00	0.6032257
48	0x40a9e3cb	5.3090568
49	0x3e12eaee	0.14347431
50	0x3ed42fde	0.4144277
51	0x3e2a3da9	0.16625084
52	0x3d5afd8c	0.053464457
53	0x3e6b0903	0.22952656
54	0xbdc12a18	-0.09431857
55	0x3e7d0d21	0.2471204
56	0xc013df67	-2.3105104
57	0x3ed9cc35	0.4253861
58	0x3e8b292b	0.27179846
59	0x3e23c02f	0.15991281
60	0x3ef00753	0.46880588
61	0x3ddccee4	0.10781649
62	0x3d906bc0	0.07051802
63	0x3ed4a921	0.41535285

bias f4 [8]
0	0x403ecb75	2.981168
1	0x3eb802f0	0.3593974
2	0xbd9de348	-0.07709366
3	0x3f912695	1.1339899
4	0x3f8f5e10	1.1200581
5	0x3fde053c	1.7345347
6	0x3eab263b	0.33427605
7	0x3f22ef8d	0.63646775

powers f4 [8]
0	0x3f800000	1.0
1	0x3f800000	1.0
2	0x3f800000	1.0
3	0x3f800000	1.0
4	0x3f800000	1.0
5	0x3f800000	1.0
6	0x3f800000	1.0
7	0x3f800000	1.0

muls f4 [8]
0	0x3f800000	1.0
1	0x3f800000	1.0
2	0x3f800000	1.0
3	0x3f800000	1.0
4	0x3f800000	1.0
5	0x3f800000	1.0
6	0x3f800000	1.0
7	0x3f800000	1.0

weight f4 [8]
0	0x3fc8113f	1.5630263
1	0x3fdccde9	1.7250339
2	0x4024cce2	2.575005
3	0x3f9666ab	1.1750082
4	0x40050f02	2.079041
5	0x3faae1cb	1.3350157
6	0x3fc604ef	1.5470256
7	0x3fe4ff29	1.7890369

bias f4 [8]
0	0xbec41865	-0.38299862
1	0x3ea76c75	0.32699934
2	0x3d59167e	0.052999966
3	0xbfa6c8dd	-1.3030049
4	0x3edba5a2	0.42899805
5	0xbf16c871	-0.588996
6	0xc02428e7	-2.5649965
7	0x3e8bc6a9	0.27300003

running_mean f4 [8]
0	0x408b9ab7	4.362636
1	0x40b95b2d	5.79238
2	0x4079092b	3.8911846
3	0x400f4b6f	2.238979
4	0x4052f418	3.2961483
5	0x40094acc	2.1451902
6	0x409a7ce5	4.827746
7	0x407d11b2	3.954205

running_var f4 [8]
0	0x41169862	9.412203
1	0x424de4a5	51.473286
2	0x428d3f64	70.62381
3	0x40904975	4.508967
4	0x410943c3	8.579043
5	0x402f0dc6	2.7352157
6	0x42bb1c5c	93.55539
7	0x41ad84c2	21.689823

weight f4 [192, 8]
0	0x3d45e1cc	0.04831104
1	0x3f86b665	1.0524412
2	0xbea786be	-0.32719988
3	0xbef09300	-0.46987152
4	0x3ff471a9	1.9097186
5	0x3ca626a5	0.020282099
6	0xbf650908	-0.89466906
7	0x3f94f68c	1.163774
8	0x3e7b2f10	0.24529672
9	0x3f24dc3e	0.6439856
10	0xbf367046	-0.71265066
11	0xbf867353	-1.0503944
12	0x3fc3e373	1.5303787
13	0xbe90694e	-0.2820534
14	0xbf3876ef	-0.7205648
15	0x3f2d379a	0.67662966
16	0xbe7af7af	-0.24508546
17	0x3dc24e50	0.09487593
18	0xbfb76ff8	-1.4331045
19	0xbf96bbb8	-1.1776037
20	0x3f7f5b83	0.9974901
21	0xbe9d5326	-0.307275
22	0xbf978edc	-1.1840472
23	0x3ea50fa5	0.32238498
24	0x3e0148d1	0.12625434
25	0xbf1b8e9d	-0.60764486
26	0xc00a941c	-2.1652899
27	0xbfcd1d41	-1.6024553
28	0x3e40878e	0.1880171
29	0xbf50a188	-0.8149648
30	0xbf9d9100	-1.2309875
31	0xbf0e0f4e	-0.55492103
32	0xbeddd1ba	-0.4332407
33	0xbfb7f761	-1.4372369
34	0xc0283ff6	-2.6289039
35	0xbfc797db	-1.5593218
36	0xbeb16008	-0.3464358
37	0xbeea33fe	-0.45742792
38	0xbfa77a8e	-1.3084276
39	0xbfb2389c	-1.3923526
40	0xbee49d6c	-0.44651353
41	0xbfd74f68	-1.6821108
42	0xc02ddfea	-2.7167916
43	0xbf9f2644	-1.2433553
44	0xbf443c25	-0.76654273
45	0xbf3397ff	-0.701538
46	0xbfe99ae1	-1.825039
47	0xbfd8704b	-1.6909269
48	0x3e143e93	0.14476995
49	0xbfeb79f4	-1.8396592
50	0xc00e8d08	-2.2273579
51	0xbf8685e5	-1.0509611
52	0xbf949bf4	-1.1610093
53	0xbe859d18	-0.26096416
54	0xbfe46cde	-1.7845724
55	0xc00dc354	-2.215047
56	0x3f00e30f	0.50346464
57	0xc02294fd	-2.5403435
58	0xbfd53862	-1.6657832
59	0xbf3e4818	-0.74328756
60	0xbfc1f6db	-1.5153459
61	0xbe6cfee9	-0.23144116
62	0xbf9682c1	-1.1758653
63	0xc01ca37f	-2.447479
64	0x3f0b289c	0.5435884
65	0x3fc402e8	1.5313387
66	0x3e943d9c	0.28953254
67	0xbeceb99c	-0.40375984
68	0x400aae4b	2.166888
69	0x3e8af50f	0.2714009
70	0xbf020930	-0.5079527
71	0x3f9b9c78	1.2157125
72	0x3ee414dc	0.44547164
73	0x3f84a462	1.0362666
74	0xbedb7610	-0.42863512
75	0xbf61ed6f	-0.8825292
76	0x3fd2feca	1.6484005
77	0xbe8d57e0	-0.27606106
78	0xbf0130d3	-0.50465125
79	0x3f52b436	0.8230623
80	0x3ea5d866	0.3239166
81	0x3eccaba8	0.39974713
82	0xbf1832d0	-0.59452534
83	0xbf226cb3	-0.6344711
84	0x3f5b2b50	0.85612965
85	0xbdaa024a	-0.08301218
86	0xbf82574e	-1.0182893
87	0x3eafa3ae	0.34304565
88	0xbdaff636	-0.08591883
89	0xbe75555d	-0.23958345
90	0xbfb21c3d	-1.3914868
91	0xbf60a0cf	-0.87745374
92	0x3f2602c9	0.64848
93	0xbf39b8f3	-0.72547835
94	0xbfb5dc4e	-1.4207857
95	0xbe882750	-0.26592493
96	0xbc97fd0b	-0.018553277
97	0xbf99e583	-1.2023166
98	0xc01d76b5	-2.4603703
99	0xbfc49a17	-1.5359524
100	0xbec5e687	-0.3865244
101	0xbf65b7b7	-0.8973345
102	0xbfcbc8b1	-1.5920621
103	0xbf7a6e00	-0.97824097
104	0xbe3013c5	-0.17195041
105	0xbfc2995f	-1.5203055
106	0xc0288c0a	-2.6335473
107	0xbf9401e1	-1.1563073
108	0xbeba1bf4	-0.36349452
109	0xbec6dbd2	-0.38839585
110	0xbfe51179	-1.7895957
111	0xbfad9425	-1.3560835
112	0x3e5f907d	0.21832462
113	0xbfd5fbbe	-1.6717451
114	0xc00b6108	-2.1777973
115	0xbfbb7c0d	-1.4647232
116	0xbf8f6209	-1.1201793
117	0xbec9623a	-0.39332753
118	0xbfbfb028	-1.4975634
119	0xbfc1233a	-1.5088875
120	0x3f0fbb13	0.5614483
121	0xc01e7e6a	-2.4764657
122	0xbfa564ca	-1.2921383
123	0xbfa7eda1	-1.3119394
124	0xbf8fb368	-1.1226625
125	0x3daac9ad	0.08339248
126	0xbfaba2df	-1.3409079
127	0xc0067ff7	-2.1015604
128	0x3f4d7159	0.8025108
129	0x3f907acf	1.1287478
130	0x3d3e7b65	0.046504397
131	0xbeba70ec	-0.36414278
132	0x3ff8594b	1.940225
133	0x3ea28f07	0.31749746
134	0xbead5314	-0.33852446
135	0x3fb2a9f3	1.3958114
136	0x3f433045	0.7624553
137	0x3fadc070	1.3574352
138	0x3deb212a	0.11480935
139	0xbe92e9b9	-0.2869394
140	0x3ff44080	1.9082184
141	0x3df33857	0.1187598
142	0xbebc135d	-0.36733523
143	0x3f97b975	1.1853472
144	0x3e17dfd7	0.14831482
145	0x3ec59437	0.3858964
146	0xbed3df12	-0.41381127
147	0xbf33c121	-0.70216566
148	0x3faa0fc0	1.3286057
149	0xbdde1248	-0.108433306
150	0xbf85fbb4	-1.0467439
151	0x3f77a387	0.967339
152	0x3dca7c4f	0.09886991
153	0x3e5162ce	0.20447847
154	0xbfa7694e	-1.3079011
155	0xbf717759	-0.94322735
156	0x3f82403a	1.017585
157	0xbf566525	-0.83748084
158	0xbfac8554	-1.3478189
159	0xbe073afe	-0.13206097
160	0x3cc3df39	0.023910152
161	0xbf37ee5f	-0.718481
162	0xc016c952	-2.3560376
163	0xbf812cd5	-1.0091807
164	0x3e960ff4	0.29309046
165	0xbefd0fa4	-0.49425995
166	0xbf8a8e3b	-1.0824655
167	0xbecc7365	-0.3993179
168	0xbec584ba	-0.38577825
169	0xbf0f51fa	-0.5598446
170	0xc039a33b	-2.9005878
171	0xbfdc1ac7	-1.7195672
172	0xbd99118c	-0.0747405
173	0xbf87b5b9	-1.0602332
174	0xbfa8c70a	-1.3185742
175	0xbf8533b3	-1.0406402
176	0x3e5dcc2b	0.21659915
177	0xbf6d62e0	-0.92728996
178	0xc012a6f6	-2.2914405
179	0xbf880d37	-1.0629033
180	0xbf2f82d7	-0.6855902
181	0xbf233e9b	-0.63767403
182	0xbfa77954	-1.3083901
183	0xbfaf0a5a	-1.3675034
184	0x3f7b6836	0.9820589
185	0xbfd01fbd	-1.6259686
186	0xbfa7ab85	-1.3099219
187	0xbf3c027c	-0.7344129
188	0xbf90d643	-1.1315387
189	0x3e80b975	0.25141492
190	0xbf8644c5	-1.0489737
191	0xbfd4dad0	-1.6629276
192	0x3ed1e37e	0.40993875
193	0x3f9f7805	1.2458502
194	0xbde40732	-0.11134185
195	0xbf1faad7	-0.62370056
196	0x3fb03583	1.376633
197	0x3e1471b3	0.14496498
198	0xbf010311	-0.50395304
199	0x3fb05fe6	1.3779266
200	0x3ef38fb4	0.47570574
201	0x3f562ade	0.8365916
202	0x3eebcdc0	0.46055412
203	0xbe772f95	-0.24139245
204	0x3fdacb15	1.7093226
205	0x3e8c02f7	0.27346012
206	0xbe37f88d	-0.17965908
207	0x3fa9e403	1.3272709
208	0x3f21333a	0.6296879
209	0x3f1f137e	0.6213912
210	0xbed12650	-0.40849543
211	0xbf4498c6	-0.76795614
212	0x3f8a5490	1.0807056
213	0xbe8e50ea	-0.27796108
214	0xbf439609	-0.7640081
215	0x3ec82654	0.39091742
216	0x3ea27fb4	0.31738055
217	0x3ec83dbb	0.39109597
218	0xbf4d1cc6	-0.8012203
219	0xbf8b766e	-1.0895517
220	0x3f3f6994	0.74770474
221	0xbec98730	-0.39360952
222	0xbf5087be	-0.81457126
223	0x3e66f61d	0.22554822
224	0x3d6794c3	0.056538355
225	0xbe5783ae	-0.21046326
226	0xc0030159	-2.0469573
227	0xbf4dbad1	-0.80363184
228	0x3f097dc3	0.5370752
229	0xbecd6a32	-0.40120083
230	0xbf69fb81	-0.9139939
231	0xbecdfd46	-0.40232295
232	0xbf1e6076	-0.6186594
233	0xbe8a7636	-0.27043313
234	0xc017412a	-2.3633523
235	0xbf76cfa3	-0.9641058
236	0xba5fafba	-0.000853296
237	0xbf53e424	-0.8276999
238	0xbfac9041	-1.3481523
239	0xbee1c43b	-0.44095024
240	0x3f223787	0.6336598
241	0xbf791f9b	-0.9731385
242	0xbfd89a71	-1.6922132
243	0xbfaccda4	-1.3500257
244	0xbec73f06	-0.3891527
245	0xbec012c2	-0.3751431
246	0xbfb0a7fd	-1.3801266
247	0xbfaeb1ac	-1.3647971
248	0x3fafd602	1.3737185
249	0xc0013ed1	-2.019459
250	0xbf3b6029	-0.73193604
251	0xbf8c0168	-1.0937929
252	0xbfa27b55	-1.2693888
253	0x3e2c7bfb	0.1684417
254	0xbf655df2	-0.89596474
255	0xc0084dcb	-2.129748

bias f4 [192]
0	0x3db03764	0.08604315
1	0xbe76f36b	-0.24116294
2	0x3b75a860	0.0037484393
3	0x3de55528	0.11197883
4	0x3f0d662e	0.5523404
5	0x3f3f4a64	0.74722886
6	0x3f818e72	1.0121596
7	0x3f2d0808	0.6759038
8	0x3e8d9ca0	0.27658558
9	0x3ef83cda	0.48483926
10	0x3f03d4d1	0.5149661
11	0x3e7e15bc	0.24812979
12	0x3f0425d6	0.51620233
13	0x3f988b2e	1.1917474
14	0x3f86dd80	1.0536346
15	0x3ef8e645	0.48613182
16	0xbce28130	-0.027649492
17	0x3c947818	0.018123671
18	0x3e5ac276	0.21363243
19	0x3edccc08	0.43124413
20	0x3eba4018	0.36377025
21	0x3f9a3a7e	1.20491
22	0x3f8c8eb8	1.0981054
23	0x3f840587	1.0314187
24	0x3bb2aef8	0.005452987
25	0x3e9d26b8	0.30693603
26	0x3e7ee508	0.24892056
27	0x3f28acad	0.6588848
28	0x3f5d49c5	0.8644069
29	0x3f6c11fc	0.9221494
30	0x3f710870	0.941535
31	0x3f8779b5	1.0584017
32	0x3e9a8906	0.30182666
33	0x3f11ae3b	0.5690648
34	0x3f05365c	0.5203607
35	0x3f3510b1	0.70728594
36	0x3f42891b	0.75990456
37	0x3eac8dfe	0.3370208
38	0x3f01c161	0.506857
39	0x3f5d929c	0.86551833
40	0xbd63d0db	-0.055619102
41	0x3e215d38	0.15758216
42	0x3e2088b3	0.15677147
43	0x3e081581	0.13289453
44	0x3f44e332	0.7690917
45	0x3e6d39cc	0.23166579
46	0x3e8e71f2	0.27821308
47	0x3eb60732	0.35552365
48	0x3f0f9b9f	0.56096834
49	0x3f016a96	0.5055326
50	0x3f1bbb8a	0.60833037
51	0x3ea2ffcb	0.3183578
52	0x3ee28165	0.44239345
53	0x3f107231	0.5642424
54	0x3f2cd9d3	0.67519873
55	0x3e9b17a0	0.30291462
56	0x3ee2535a	0.44204217
57	0x3e0748a7	0.13211308
58	0x3f0b1356	0.5432638
59	0x3f21f476	0.6326364
60	0x3ea4f0cb	0.3221496
61	0xbd0fd718	-0.03511724
62	0x3f0d2643	0.5513651
63	0x3e6edabb	0.23325627
64	0xbe625b43	-0.22105126
65	0xbed9dbae	-0.42550415
66	0xbee110d8	-0.43958163
67	0xbe20f498	-0.15718305
68	0xbe974071	-0.29541352
69	0xbeb7d590	-0.35905123
70	0xbd192c5b	-0.037395816
71	0xbf2d0257	-0.67581695
72	0xbf1620c1	-0.5864373
73	0xbf0d54a4	-0.55207276
74	0xbecef032	-0.4041763
75	0xbf2670cd	-0.6501587
76	0xbefd18c2	-0.4943295
77	0xbf190d25	-0.5978568
78	0xbefc42aa	-0.4926961
79	0xbf145ee7	-0.5795731
80	0xbf1dd301	-0.6165009
81	0xbe400781	-0.18752863
82	0xbf40ea90	-0.75357914
83	0xbed113b5	-0.40835348
84	0xbf1e9e69	-0.61960465
85	0xbda1cb0d	-0.07900057
86	0xbe7bba39	-0.24582757
87	0xbe9585eb	-0.29203734
88	0xbe79ba15	-0.24387391
89	0xbe4fb898	-0.2028526
90	0xbf30e3ec	-0.6909778
91	0xbec9ad60	-0.39390087
92	0xbf519d93	-0.81881064
93	0xbf207a3c	-0.62686515
94	0xbf2d30bf	-0.67652506
95	0xbeea78e8	-0.4579537
96	0xbe8c7d3d	-0.274393
97	0xbe99e0b1	-0.30054238
98	0xbe6c618c	-0.23084086
99	0xbe81e55f	-0.2537031
100	0xbf741fac	-0.9536083
101	0xbf8062f5	-1.0030199
102	0xbf58345a	-0.8445488
103	0xbf1f49ae	-0.622218
104	0xbf1181ef	-0.5683889
105	0xbf189cad	-0.5961407
106	0xbefb9c4e	-0.4914269
107	0xbf02e4e8	-0.51130533
108	0xbf31af89	-0.6940847
109	0xbee4fa4c	-0.4472221
110	0xbf576e02	-0.84152234
111	0xbf5dacdf	-0.86591905
112	0xbf44c427	-0.76861805
113	0xbf2a6444	-0.66559243
114	0xbf44b322	-0.76835835
115	0xbf17050b	-0.5899207
116	0xbf858833	-1.043219
117	0xbf7481bc	-0.9551046
118	0xbee9eec4	-0.45689976
119	0xbf537cf7	-0.82612556
120	0xbf003a02	-0.5008851
121	0xbf36df89	-0.7143484
122	0xbf22a356	-0.6353048
123	0xbf307cb6	-0.68940294
124	0xbf04930e	-0.5178689
125	0xbf2b128d	-0.6682518
126	0xbf54e71d	-0.8316515
127	0xbfacd899	-1.35036
128	0xbe9975cc	-0.29972684
129	0xbeec0290	-0.46095705
130	0x3e501249	0.20319475
131	0x3d5d7f8f	0.054076727
132	0x3f12908b	0.57251805
133	0x3e21cd87	0.15801059
134	0x3e8353d0	0.2564988
135	0x3f19b02f	0.6003446
136	0xbbf1e4d0	-0.007382013
137	0xbe28e582	-0.164938
138	0x3e9c7c45	0.3056356
139	0x3e82def0	0.25560713
140	0x3f2fc30b	0.68656987
141	0x3f5ec7bc	0.8702352
142	0x3f7e8ad0	0.9943056
143	0x3f3ba329	0.7329584
144	0x3e6e5864	0.23275906
145	0x3e04a73c	0.1295442
146	0x3eb5f97a	0.35541898
147	0x3eab2126	0.33423728
148	0x3eff7982	0.4989739
149	0x3f6f609c	0.9350679
150	0x3f0635c7	0.5242581
151	0x3f37d33d	0.718067
152	0xbe8c9c38	-0.27462935
153	0xbe084c41	-0.13310339
154	0xbcf99d51	-0.030470522
155	0x3daa9cf1	0.083307154
156	0x3e56e809	0.20986952
157	0x3f38f04f	0.7224168
158	0x3ef6c967	0.48200533
159	0x3eafcc97	0.34335777
160	0x3e24fec7	0.16112815
161	0x3e03c455	0.12867863
162	0xbd3c560d	-0.045980502
163	0x3edcd727	0.43132898
164	0x3e351838	0.1768502
165	0x3f2c090a	0.6720129
166	0x3e64fc2e	0.22361824
167	0x3e96d3c7	0.29458448
168	0x3e323729	0.17403854
169	0x3eaf9e11	0.34300283
170	0xbd06f68e	-0.032949977
171	0x3f15c6bc	0.5850637
172	0x3cc13e68	0.023589328
173	0x3e3cef06	0.18450555
174	0x3ee8755a	0.45402032
175	0x3e9e459e	0.3091249
176	0x3dadf115	0.084932484
177	0xbe00e48b	-0.12587182
178	0x3e98c4e9	0.2983773
179	0x3ec79df3	0.38987693
180	0x3e4a0e78	0.19732082
181	0x3f18ac78	0.59638166
182	0x3ec384ad	0.3818716
183	0x3dbc890b	0.09205826
184	0xbe1624fe	-0.14662549
185	0x3ddeabd7	0.108726196
186	0x3f26d38c	0.65166545
187	0x3e593357	0.21210991
188	0x3e211d4c	0.15733832
189	0xbdf2f670	-0.118634105
190	0x3ecd120c	0.4005283
191	0xbeb755c4	-0.3580762

weight f4 [8, 192]
0	0xbe992296	-0.299092
1	0x3c20ec92	0.009822028
2	0x3ce3bdf6	0.027800541
3	0xbe199819	-0.14999427
4	0xbd9833a0	-0.07431722
5	0xbdb2eeb2	-0.08736934
6	0xbcd2680e	-0.025684383
7	0xbe6e034c	-0.23243445
8	0xbe25049f	-0.16115044
9	0x3dee1afe	0.11626242
10	0x3e27f65f	0.16402577
11	0xbd29930a	-0.041399993
12	0x3e1e6ceb	0.15471236
13	0x3e11d352	0.14240769
14	0x3e2cd2e9	0.16877331
15	0xbd9925a0	-0.074778795
16	0xbea332b3	-0.31874618
17	0x3df1c194	0.118045
18	0xbd09254a	-0.033482827
19	0xbdc15c14	-0.09441391
20	0xbbb37581	-0.005476654
21	0x3d1642ee	0.036684923
22	0x3e70f775	0.23531897
23	0x3e1ab655	0.15108617
24	0xbeb7cb17	-0.35897133
25	0x3dd6ecf8	0.10494417
26	0xbdad4218	-0.08459872
27	0xbe078e66	-0.13237914
28	0x3dc8b486	0.09800057
29	0x3e57cbaa	0.21073785
30	0x3ea5c770	0.3237872
31	0x3ea97f77	0.3310506
32	0xbeb27bca	-0.3486007
33	0x3d7bf75f	0.06151521
34	0xbd4329b7	-0.047647204
35	0xbe054262	-0.13013604
36	0x3d63894b	0.055550855
37	0x3e43aead	0.19109602
38	0x3ee39ef1	0.444572
39	0x3ec81646	0.39079493
40	0xbedfbe96	-0.43700093
41	0x3d5f46ca	0.05451087
42	0xbdead2ba	-0.11465974
43	0xbdbc9cb3	-0.092095755
44	0x3e148d7f	0.14507101
45	0x3e841096	0.25793904
46	0x3f0f9897	0.5609221
47	0x3eea21fe	0.4572906
48	0xbef3cf16	-0.47618932
49	0xbddcc3ba	-0.107795194
50	0xbe2b03ea	-0.16700712
51	0xbea8a7b2	-0.3294044
52	0xbd8239bf	-0.063586704
53	0x3e115f54	0.14196521
54	0x3ec07709	0.37590817
55	0x3ebf28bd	0.37335768
56	0xbf28a963	-0.65883464
57	0xbe089453	-0.13337831
58	0xbec52526	-0.38504905
59	0xbefae39d	-0.4900178
60	0xbed0c132	-0.40772396
61	0xbed9b28f	-0.42519042
62	0xbe858294	-0.26076186
63	0xbe356489	-0.17714132
64	0x3e3ad856	0.18246588
65	0x3eafe662	0.34355456
66	0x3c00fcfc	0.007872816
67	0xbdaad9fd	-0.08342359
68	0xbdbdc927	-0.092668824
69	0xbe3bdc8a	-0.18345848
70	0xbd0fee45	-0.03513934
71	0xbde01d43	-0.10943081
72	0x3e3ccb18	0.18436849
73	0x3e675557	0.22591148
74	0xbe4590ff	-0.19293593
75	0xbe7c7c7d	-0.24656864
76	0xbe23b80a	-0.15988174
77	0xbe4385dd	-0.19094034
78	0xbe2c2dd2	-0.16814354
79	0xbe843c28	-0.25827146
80	0x3ef30bd8	0.47469974
81	0x3e031e1e	0.12804458
82	0xbc4dacf6	-0.012553444
83	0xbc516df6	-0.012782564
84	0x3d9df0d6	0.077119514
85	0xbd8bd6c8	-0.06828076
86	0xbde83972	-0.11339082
87	0xbea736e8	-0.32659078
88	0x3f4b6f5e	0.7946681
89	0x3eab814d	0.33497086
90	0x3ea8d725	0.32976642
91	0x3ee08868	0.4385407
92	0x3e70fded	0.23534365
93	0xbda8421c	-0.08215734
94	0xbe199bb4	-0.15000802
95	0xbeab727a	-0.33485776
96	0x3f854bdc	1.0413775
97	0x3f042e2f	0.5163297
98	0x3f26381b	0.6492936
99	0x3f64120d	0.89090043
100	0x3f07c74b	0.5303847
101	0x3d7ee955	0.06223424
102	0xbcaa1e29	-0.020766335
103	0xbe2d5013	-0.16925077
104	0x3f9b1fa8	1.2119036
105	0x3f15080f	0.5821542
106	0x3f4f9334	0.8108399
107	0x3f8c63e7	1.0967988
108	0x3f4ea519	0.8072067
109	0x3e077359	0.13227595
110	0xbd38d3ee	-0.045123987
111	0xbe89f13c	-0.2694186
112	0x3f815e81	1.0106965
113	0x3f25dfa1	0.64794356
114	0x3f6ce423	0.9253561
115	0x3fad5e4f	1.3544406
116	0x3f654048	0.8955121
117	0x3e5c5eb6	0.21520504
118	0xbd8a4646	-0.06751685
119	0xbe8b1923	-0.27167615
120	0x3f6dd85b	0.9290826
121	0x3f2e4c0a	0.68084776
122	0x3f80ab91	1.0052358
123	0x3fac141b	1.3443636
124	0x3f431666	0.7620605
125	0xbdbe6afe	-0.09297751
126	0xbe875be3	-0.26437292
127	0xbe4064a6	-0.18788394
128	0x3f94a433	1.161261
129	0x3fe625a8	1.7980242
130	0x4012349d	2.2844613
131	0x4010ab94	2.2604723
132	0x3f9178a9	1.1364948
133	0xbe958d4d	-0.29209366
134	0xbf4ff09f	-0.81226534
135	0xbe457748	-0.19283783
136	0x3f4b63ff	0.79449457
137	0x3ff74cc2	1.93203
138	0x40117cb4	2.2732363
139	0x400c54e2	2.1926808
140	0x3f59ffd6	0.85156
141	0xbf1ed492	-0.62043107
142	0xbf83d479	-1.0299217
143	0xbe6755bd	-0.225913
144	0xbee44921	-0.44587043
145	0x3f6b45ad	0.9190319
146	0x3fa68ded	1.3012062
147	0x3f911666	1.133496
148	0x3e2daebf	0.16961192
149	0xbf7e9961	-0.9945279
150	0xbf81d638	-1.0143499
151	0xbe03e8e0	-0.12881804
152	0xbf97b405	-1.1851813
153	0xbc378f6e	-0.01120363
154	0x3e5907d7	0.21194397
155	0x3e4f2584	0.20229155
156	0xbedc6e26	-0.43052787
157	0xbf908811	-1.1291524
158	0xbf83cad1	-1.029627
159	0xbe75d21c	-0.24005932
160	0xbfe41ebb	-1.7821878
161	0xbf684d51	-0.90742975
162	0xbf710373	-0.9414589
163	0xbf3e2d50	-0.7428789
164	0xbf860a50	-1.0471897
165	0xbfa7233e	-1.305763
166	0xbf921b0b	-1.1414503
167	0xbeba6dd3	-0.36411914
168	0xbfee7b43	-1.8631366
169	0xbfa49268	-1.285718
170	0xbfa2a039	-1.2705146
171	0xbf586896	-0.84534585
172	0xbf676e35	-0.9040254
173	0xbf91b7d9	-1.1384231
174	0xbf80393e	-1.0017469
175	0xbeb60874	-0.35553324
176	0xbfaff62a	-1.3746998
177	0xbf85225c	-1.0401111
178	0xbf6dca47	-0.92886776
179	0xbf15e5f1	-0.5855399
180	0xbed716d3	-0.420096
181	0xbf3333f7	-0.7000117
182	0xbf30e2de	-0.6909617
183	0xbe94a2d6	-0.29030484
184	0xbf5004c7	-0.8125729
185	0xbecc9f6b	-0.39965376
186	0xbe80ce15	-0.25157228
187	0x3e172050	0.1475842
188	0x3ed1c161	0.4096785
189	0x3e23fe9f	0.16015099
190	0x3e163ca6	0.14671573
191	0x3ea139ba	0.31489354
192	0xc1317921	-11.0920725
193	0xc132d759	-11.177575
194	0xc1334251	-11.203691
195	0xc1330e27	-11.190955
196	0xc1329d3d	-11.163388
197	0xc132f0ed	-11.18382
198	0xc1333ec2	-11.202822
199	0xc132d363	-11.176608
200	0xc1324e65	-11.144139
201	0xc1311fbb	-11.070247
202	0xc13268db	-11.1505995
203	0xc132e5d7	-11.181113
204	0xc132d4d9	-11.176965
205	0xc1331cda	-11.194544
206	0xc132c42f	-11.172896
207	0xc1329874	-11.16222
208	0xc13259a3	-11.146884
209	0xc13110a8	-11.066566
210	0xc131794f	-11.092116
211	0xc132706a	-11.152445
212	0xc1319e11	-11.10109
213	0xc132f496	-11.184713
214	0xc1311d02	-11.069582
215	0xc131e759	-11.118981
216	0xc1312da9	-11.0736475
217	0xc1333e6a	-11.202738
218	0xc13290e3	-11.160373
219	0xc1328e63	-11.159762
220	0xc132207b	-11.13293
221	0xc132c3a8	-11.172768
222	0xc131d879	-11.11535
223	0xc1319c68	-11.100685
224	0xc13202a9	-11.125649
225	0xc1323686	-11.138311
226	0x4131527f	11.082641
227	0xc1317cc0	-11.092957
228	0xc132b91c	-11.170193
229	0xc13221d5	-11.13326
230	0xc13214d1	-11.130082
231	0xc1333d7d	-11.202512
232	0xc132cb6d	-11.1746645
233	0xc1310206	-11.062994
234	0x41313ad9	11.076867
235	0xc1329e20	-11.163605
236	0xc1323b4f	-11.13948
237	0xc1314527	-11.079383
238	0xc1310d4e	-11.065748
239	0xc1328f56	-11.159994
240	0xc132259e	-11.134184
241	0xc131b305	-11.106206
242	0xc132f725	-11.185338
243	0xc1313f6d	-11.077985
244	0xc13175bb	-11.091243
245	0xc132e93b	-11.181941
246	0xc1332c4c	-11.198315
247	0xc132deda	-11.179407
248	0xc131bd22	-11.108675
249	0xc1328a64	-11.158787
250	0xc1323a84	-11.139286
251	0xc1334bc4	-11.205997
252	0xc131af7d	-11.105344
253	0xc131dabf	-11.115905
254	0xc1315d45	-11.085271
255	0xc132535c	-11.145351

bias f4 [8]
0	0x3fb16d52	1.3861487
1	0xc13283fd	-11.157224
2	0xc1277779	-10.466668
3	0xc13095a6	-11.036535
4	0xc12f3863	-10.951266
5	0xc04925f5	-3.1429417
6	0xc12e05c7	-10.8764105
7	0x400f95b1	2.2435114

powers f4 [8]
0	0x3f800000	1.0
1	0x3f800000	1.0
2	0x3f800000	1.0
3	0x3f800000	1.0
4	0x3f800000	1.0
5	0x3f800000	1.0
6	0x3f800000	1.0
7	0x3f800000	1.0

muls f4 [8]
0	0x3f800000	1.0
1	0x3f800000	1.0
2	0x3f800000	1.0
3	0x3f800000	1.0
4	0x3f800000	1.0
5	0x3f800000	1.0
6	0x3f800000	1.0
7	0x3f800000	1.0

weight f4 [8]
0	0x3fdccde9	1.7250339
1	0xc1223306	-10.137457
2	0x4137be8c	11.48402
3	0xc121afe6	-10.105444
4	0xc12088de	-10.033415
5	0x3fa062b1	1.2530118
6	0xc1221a70	-10.131454
7	0x3fb831d3	1.4390205

bias f4 [8]
0	0xbe645a2f	-0.22300027
1	0x3cdd2f1e	0.027000006
2	0xbc75c294	-0.015000004
3	0x3c75c28e	0.014999999
4	0x3d48b433	0.048999976
5	0xbf2188eb	-0.63099545
6	0xbd81061e	-0.06299995
7	0x3e45a1d9	0.19300021

running_mean f4 [8]
0	0x404f02db	3.2345493
1	0xb22bcc71	-9.999995e-09
2	0xb22bcc71	-9.999995e-09
3	0xb22bcc71	-9.999995e-09
4	0xb22bcc71	-9.999995e-09
5	0x41cae746	25.362926
6	0xb22bcc71	-9.999995e-09
7	0x40102924	2.252511

running_var f4 [8]
0	0x40a1c384	5.0551167
1	0x00000004	6e-45
2	0x00000004	6e-45
3	0x00000004	6e-45
4	0x00000004	6e-45
5	0x4352b323	210.69975
6	0x00000004	6e-45
7	0x4067c7b0	3.621563

weight f4 [8, 8]
0	0x3e56cd83	0.20976834
1	0x3cc0c0d4	0.023529448
2	0x3c36ea4d	0.01116426
3	0xbcbc8412	-0.023012195
4	0xbd83c07f	-0.064332
5	0x3fb6d2d9	1.4283096
6	0x3e7d6563	0.24745707
7	0x3e168851	0.14700438
8	0x3f05a327	0.52202076
9	0xbf16ee81	-0.5895768
10	0xbeaba042	-0.33520705
11	0x3ed160f4	0.40894282
12	0xbe7d4019	-0.24731483
13	0xbf0be3f3	-0.546447
14	0xbeebb258	-0.46034503
15	0xbf38474e	-0.719838
16	0xbfc574e0	-1.5426292
17	0xbd2ffbd4	-0.04296477
18	0xbd882ac0	-0.06648779
19	0x3d22fd21	0.039792184
20	0xbe7c4e34	-0.24639207
21	0x3f24d2f4	0.6438439
22	0xbe87d794	-0.2653166
23	0xbe28f67b	-0.16500275
24	0xbf7e3228	-0.9929528
25	0x3e91e501	0.2849503
26	0x3dc418a6	0.09575014
27	0x3e447e95	0.19188912
28	0x3e8443f8	0.25833106
29	0x3ef90fb0	0.4864478
30	0x3cfbe67f	0.030749558
31	0xbeed57d6	-0.46356076
32	0xbf8b0d66	-1.0863464
33	0x3eac6eac	0.33678186
34	0xb997fc74	-0.00028989057
35	0xbd5fe1c4	-0.054658666
36	0x3e7b4073	0.24536304
37	0x3efb0852	0.49029785
38	0xbdff188e	-0.12455855
39	0x3f5c6e1b	0.8610551
40	0x3f588005	0.8457034
41	0x3dffda75	0.12492839
42	0xbdb18bc0	-0.08669233
43	0xbcedba91	-0.029019626
44	0x3d49ecba	0.049298026
45	0xbf75e6f0	-0.9605551
46	0xbd8e147e	-0.06937502
47	0xbf5f5333	-0.87236327
48	0x3f008e8c	0.5021751
49	0xbe3661e4	-0.1781078
50	0x3d43f7f4	0.04784389
51	0x3ea68024	0.3251964
52	0x3b34aed8	0.0027570035
53	0xbe96af80	-0.2943077
54	0xbdb713be	-0.089393124
55	0xbfe2f32d	-1.7730461
56	0xbf2ce954	-0.6754353
57	0x3f0c6fdc	0.54858184
58	0x3ed8921a	0.42298967
59	0xbf6f0237	-0.93362755
60	0x3f3ac819	0.72961575
61	0xbf501a5b	-0.81290215
62	0x3f32e74a	0.6988417
63	0xbe76652a	-0.24062029

bias f4 [8]
0	0xbfdd5ba0	-1.7293587
1	0x4001a4dd	2.0256875
2	0xbf5879d1	-0.8456088
3	0x3fbb1e33	1.4618591
4	0x3fa7e3f3	1.311644
5	0xbeb672fa	-0.35634595
6	0x3dd966b6	0.10615294
7	0xbfd27119	-1.6440765

powers f4 [8]
0	0x3f800000	1.0
1	0x3f800000	1.0
2	0x3f800000	1.0
3	0x3f800000	1.0
4	0x3f800000	1.0
5	0x3f800000	1.0
6	0x3f800000	1.0
7	0x3f800000	1.0

muls f4 [8]
0	0x3f800000	1.0
1	0x3f800000	1.0
2	0x3f800000	1.0
3	0x3f800000	1.0
4	0x3f800000	1.0
5	0x3f800000	1.0
6	0x3f800000	1.0
7	0x3f800000	1.0

weight f4 [8]
0	0x3f9d0eaf	1.2270106
1	0x4031fbbe	2.7809901
2	0x400ff016	2.2490287
3	0x401947fa	2.395018
4	0x4072dfea	3.7949166
5	0x401f6cba	2.4910111
6	0x403f09d6	2.9849753
7	0x4017df8e	2.3730197

bias f4 [8]
0	0x3eb8d4d9	0.3609989
1	0x3e9a1ca1	0.30099967
2	0x3e353f8b	0.17700021
3	0x3f32f14f	0.6989946
4	0x3f88102d	1.0629936
5	0xbec624ad	-0.38699856
6	0xbe85a1d1	-0.2610002
7	0x3f9978d5	1.199

running_mean f4 [8]
0	0x3d6d6a9f	0.05796301
1	0x400b683d	2.1782372
2	0x3efe1306	0.4962389
3	0x3fd10db6	1.6332309
4	0x3fd4f77f	1.663803
5	0x3f0ebdb9	0.55758244
6	0x3f3c95c6	0.73666036
7	0x3e864a03	0.2622834

running_var f4 [8]
0	0x3d69d94b	0.057091992
1	0x3f8c7576	1.0973346
2	0x3f88560e	1.0651262
3	0x3fd58d9f	1.6683844
4	0x40009cd5	2.0095723
5	0x3f8fb2a1	1.1226388
6	0x3f9b6a5f	1.2141837
7	0x3e744a4c	0.23856467

weight f4 [192, 8]
0	0xbe23af70	-0.15984893
1	0xbf365e4c	-0.71237636
2	0xbf218139	-0.63087803
3	0xbf5b57d2	-0.8568088
4	0xbdde10de	-0.10843061
5	0xbe28e71c	-0.16494411
6	0xbd61059e	-0.054936998
7	0xbd91b14d	-0.071138956
8	0x3e38773c	0.18014234
9	0xbf84d190	-1.0376453
10	0xbf03f67f	-0.51548
11	0xbed82f52	-0.42223603
12	0x3e88377e	0.26604837
13	0xbea43da2	-0.32078272
14	0x3e40b24e	0.18818018
15	0xbebf3c64	-0.37350762
16	0x3d7c99ed	0.061670233
17	0xbf63e00b	-0.8901374
18	0xbf2effd2	-0.683591
19	0xbe741e5e	-0.23839709
20	0x3d35c43b	0.044376593
21	0xbe9f18f5	-0.31073728
22	0x3e1d9567	0.15389024
23	0x3dd2d770	0.10294998
24	0x3eeba92e	0.4602751
25	0xbfb5bae9	-1.4197665
26	0xbda5ef24	-0.08102253
27	0x3e28a1ac	0.16467923
28	0x3e060f75	0.13091834
29	0x3dd17770	0.10227859
30	0x3e685600	0.22689056
31	0xbebb2422	-0.36551005
32	0x3edf8c4e	0.4366173
33	0xbfc7f565	-1.5621763
34	0x3e4d263c	0.20034117
35	0x3d6a4658	0.05719599
36	0x3f331768	0.6995759
37	0x3e5a6453	0.21327333
38	0x3e974448	0.29544282
39	0x3d8dc636	0.06922571
40	0x3ed2c3d1	0.4116502
41	0xbfdaf5ae	-1.7106225
42	0x3e841363	0.2579604
43	0xbe88ff50	-0.26757288
44	0x3e9569a2	0.29182154
45	0x3edc24fa	0.4299696
46	0x3f0b5790	0.54430485
47	0xbf404602	-0.75106823
48	0x3f474a6d	0.7784794
49	0xbfc531c6	-1.5405815
50	0x3ebbb6ba	0.36662847
51	0xbf435046	-0.7629436
52	0x3f79c27d	0.9756239
53	0x3f5390f6	0.8264307
54	0x3f152372	0.5825721
55	0xbf68ad68	-0.90889597
56	0x3f781231	0.9690276
57	0xc010b98f	-2.2613256
58	0x3e9cdeba	0.30638677
59	0xbf257760	-0.64635277
60	0x3f8c3c54	1.0955911
61	0x3f6f4004	0.93457055
62	0x3ece9e16	0.40354985
63	0xbf1f41a5	-0.6220954
64	0x3dd9036e	0.10596357
65	0xbe8fdb70	-0.28097105
66	0xbf450c73	-0.7697212
67	0xbf23388f	-0.63758177
68	0xbe9c1dd0	-0.30491495
69	0xbf0204f3	-0.507888
70	0xbbb93570	-0.005652122
71	0x3e05d234	0.13068467
72	0x3d987e84	0.07446006
73	0xbe799609	-0.2437364
74	0xbf261ed5	-0.64890796
75	0xbf19b823	-0.60046595
76	0x3d93963c	0.07206389
77	0xbc2833ba	-0.010266239
78	0xbe5b44f0	-0.21413016
79	0x3e02dc39	0.12779321
80	0x3eef361e	0.46720976
81	0xbf79596e	-0.97402084
82	0xbe972126	-0.29517478
83	0xbf5c2016	-0.8598646
84	0x3e801086	0.25012606
85	0xbe6b5c41	-0.22984411
86	0xbeb41cff	-0.35178372
87	0xbd63fa81	-0.05565882
88	0x3ee70370	0.4511981
89	0xbfaef6fb	-1.3669122
90	0xbd988103	-0.07446482
91	0x3e493ea8	0.19652808
92	0x3e49eca5	0.19719179
93	0xbef399dc	-0.47578323
94	0xbd480dcc	-0.048841283
95	0xbe80e31a	-0.25173265
96	0x3ef48b22	0.477624
97	0xbf83d46e	-1.0299203
98	0x3cfa11bf	0.03052604
99	0x3e9569f0	0.29182386
100	0xbb58d026	-0.003308305
101	0x3d770343	0.060305845
102	0x3eef5482	0.46744162
103	0x3d644a7b	0.055735093
104	0x3f7edcab	0.9955546
105	0xbfad5377	-1.3541096
106	0xbe9f3182	-0.3109246
107	0xbe32c0fc	-0.1745643
108	0x3e4b80c4	0.19873339
109	0x3f0004bd	0.5000723
110	0x3f081fc1	0.5317345
111	0xbe9f4e3a	-0.3111437
112	0x3f4db706	0.80357397
113	0xbf88d872	-1.0691054
114	0xbd793c72	-0.06084866
115	0xbf3e5f4b	-0.74364156
116	0x3da4e156	0.08050792
117	0x3f8af914	1.0857263
118	0x3f07a433	0.52984923
119	0xbf1bb0b3	-0.60816497
120	0x3f31ba97	0.6942534
121	0xbfe85cb1	-1.8153287
122	0x3edd3d1a	0.4321068
123	0xbf4c3515	-0.79768497
124	0x3f603c3e	0.8759192
125	0x3f7fceab	0.99924725
126	0x3ef9907e	0.4874305
127	0xbf1821fa	-0.59426844
128	0xbe5addc5	-0.21373661
129	0xbda661e6	-0.081241414
130	0xbee1535e	-0.44008917
131	0xbf1cbb64	-0.61223435
132	0xbe62ea88	-0.22159779
133	0xbf45dd66	-0.7729095
134	0xbeeba98a	-0.46027786
135	0x3f87bfb0	1.0605373
136	0x3f094274	0.53617024
137	0xbeda0c76	-0.42587632
138	0xbf2dadd1	-0.6784335
139	0xbe3cef66	-0.18450698
140	0xbe947efa	-0.29003125
141	0xbf19429b	-0.59867257
142	0xbf022f39	-0.50853306
143	0x3f5e5002	0.8684083
144	0x3f20c556	0.6280111
145	0xbf246d5f	-0.6422939
146	0xbee96ae6	-0.4558937
147	0xbe8a4fdf	-0.27014062
148	0xbe6f2e57	-0.23357521
149	0xbea4ad3c	-0.32163417
150	0xbed60112	-0.41797692
151	0x3eabe754	0.33574927
152	0x3ebf49d9	0.3736103
153	0xbf9893c9	-1.19201
154	0xbe174346	-0.14771757
155	0x3e19732a	0.14985338
156	0xbe2a58fc	-0.16635507
157	0xbebc7254	-0.36805975
158	0xbe44e013	-0.19226103
159	0x3eed3d88	0.46336007
160	0x3f265a1e	0.6498126
161	0xbf9f0897	-1.2424496
162	0xbe4bd075	-0.19903739
163	0xbea298a2	-0.31757075
164	0x3eae5c04	0.34054577
165	0x3e2a00c8	0.1660186
166	0xbe39ebf4	-0.18156415
167	0x3e07ddd2	0.13268211
168	0x3f6801b8	0.9062762
169	0xbf737508	-0.9510045
170	0xbe4a910f	-0.19781898
171	0xbe5a754f	-0.21333812
172	0xbdde7654	-0.10862413
173	0x3f1d6b9e	0.61492336
174	0x3ee9e3f8	0.4568174
175	0xbf2d8b4f	-0.67790693
176	0x3f84ea42	1.038399
177	0xbf3b1cda	-0.730909
178	0x3e1dd112	0.15411785
179	0xbf58fe07	-0.84762615
180	0xbdcb6d9a	-0.09933014
181	0x3f8d2f02	1.1029971
182	0x3efea616	0.4973609
183	0xbec193ee	-0.37808174
184	0x3f390ac1	0.72282034
185	0xbfbed759	-1.4909469
186	0xbd443763	-0.047904383
187	0xbf8e39f8	-1.1111441
188	0x3f891886	1.0710609
189	0x3f349127	0.70533985
190	0x3f0e0c4e	0.55487525
191	0xbe805e39	-0.25071886
192	0x3ed27b8e	0.4110989
193	0x3de6dc9f	0.11272549
194	0xbf4733e4	-0.77813554
195	0xbe8fdae0	-0.28096676
196	0xbf67a329	-0.9048334
197	0xbf37da22	-0.7181722
198	0xbf2300a9	-0.6367288
199	0x4004dc89	2.0759604
200	0x3d80eb40	0.062948704
201	0x3d525ca5	0.051357884
202	0xbf94121e	-1.1568029
203	0xbe951679	-0.29118708
204	0xbef771b2	-0.4832893
205	0xbf3965d4	-0.72421
206	0xbea0a22c	-0.31373727
207	0x3fb637ab	1.4235739
208	0x3e8aa654	0.27080023
209	0xbe8d6242	-0.27614027
210	0xbf131268	-0.5744996
211	0xbe4626c9	-0.19350733
212	0xbef6cee8	-0.48204732
213	0xbedce634	-0.4314438
214	0xbf18c746	-0.5967907
215	0x3f8946cd	1.0724732
216	0x3ec3299a	0.38117677
217	0xbf46c3f0	-0.77642727
218	0xbec47fb2	-0.38378674
219	0x3e018a0d	0.12650318
220	0x3e128d5d	0.14311738
221	0xbea8fa44	-0.33003438
222	0xbf58a047	-0.84619564
223	0x3f8998d0	1.074976
224	0x3f5792a0	0.84208107
225	0xbf2a5515	-0.66536075
226	0x3e63bfe4	0.22241169
227	0xbe52253f	-0.20522021
228	0xbe8df4da	-0.2772587
229	0x3e56e8d3	0.20987253
230	0xbe1423eb	-0.14466827
231	0x3f0ce2fc	0.5503385
232	0x3f24db23	0.64396876
233	0xbf1df965	-0.6170867
234	0xbe862ee6	-0.26207656
235	0xbe9b5a56	-0.30342358
236	0x3e36ceb4	0.17852288
237	0x3ef4c544	0.47806752
238	0x3eb70a66	0.3575012
239	0xbf1af225	-0.60525733
240	0x3f8edb4a	1.1160672
241	0xbf5c945f	-0.86163896
242	0xbee4cb96	-0.44686574
243	0xbf8de969	-1.1086856
244	0x3dd36c5a	0.10323401
245	0x3f93e5eb	1.155454
246	0x3f2a53ef	0.6653432
247	0xbf433e10	-0.76266575
248	0x3f8ed982	1.1160128
249	0xbf3a7fc4	-0.72851205
250	0xbe171515	-0.14754136
251	0xbf1dc5a9	-0.6162973
252	0x3f288a70	0.6583624
253	0x3f80ad55	1.0052897
254	0x3e86a2f4	0.26296198
255	0xbe9496f7	-0.29021427
